system/models/diabetes_iid_and_balanced/MOON_server.pt (torch, 2295 bytes, 2 tensors)

weight f4 [2, 13]
-1.451926 -0.5558024 -0.25304186 0.5977521 -3.9867797 -2.8282835 -0.19417012 5.4712796
0.38196325 0.6270431 0.22417104 0.07245942 0.37223044 1.2661545 0.5902481 0.035042584
-0.6922198 4.0463533 2.7146332 0.06789897 -5.150594 -0.17627451 -0.6107321 -0.100453004
-0.17168476 -0.60785055
00000000: b6d8 b9bf 1149 0ebf b48e 81be 4806 193f
00000010: 6627 7fc0 9902 35c0 88d4 46be b914 af40
00000020: b090 c33e e685 203f 188d 653e 9b65 943d
00000030: fd94 be3e 5a11 a23f 801a 173f d088 0f3d
00000040: 5135 31bf ba7b 8140 8dbc 2d40 9d0e 8b3d
00000050: abd1 a4c0 4e81 34be f058 1cbf 4eba cdbd
00000060: 21ce 2fbe 189c 1bbf

bias f4 [2]
0.7960798 -0.8022358
00000000: e3cb 4b3f 535f 4dbf
