system/models/maternal_iid_unbalanced/FedALA_server.pt (torch, 3651 bytes, 4 tensors)

weight f4 [20, 6]
-0.015337413 0.20600617 -0.3562736 -0.30337495 -0.15763071 0.05913967 -0.0065969117 0.33035156
-0.029750662 0.121361025 -0.12436162 -0.099602655 -0.39001942 -0.27037555 -0.1682894 0.01512298
0.16139495 0.24495828 -0.23024678 -0.115964785 0.18824008 0.35657316 -0.034888126 0.40431625
-0.06580284 0.043198436 0.36965913 -0.37871987 -0.25700778 -0.103354275 -0.15913516 0.35272688
-0.26461828 -0.1879301 -0.28521878 -0.38234943 -0.22283325 0.3768884 0.21264249 0.21867615
0.01698279 -0.19792438 0.06806874 -0.38182747 -0.29582077 -0.2105014 0.25534317 0.23582225
-0.17178538 -0.0037997335 0.2706238 0.41682792 0.16222069 0.058052927 0.2737249 -0.24037768
0.07607463 -0.31651717 -0.28295124 -0.21089438 0.18878186 0.17178322 -0.23752463 0.10565846
0.2393972 -0.027867658 0.055892862 0.14310499 0.28408614 0.39461315 -0.28047 -0.044590957
0.13921696 0.32192615 0.3417769 0.3471536 0.08124736 -0.37293655 0.037555784 -0.25540233
-0.38046873 0.36272556 0.31041557 -0.4072391 0.06609598 -0.08559637 -0.08672222 -0.18549496
0.15114987 -0.2787221 0.12376181 0.17125028 0.261375 0.12901938 -0.40405774 -0.29078656
0.18296868 0.05389998 -0.34881514 -0.23968962 0.3744017 0.21041685 -0.17800653 -0.102749884
-0.38889658 -0.007337898 -0.30743504 -0.31490508 -0.0463804 0.024314534 -0.19418135 0.21989086
-0.270298 0.34590173 0.31453675 -0.29981482 -0.07332058 0.026700085 0.09680593 0.1805731
00000000: c649 7bbc 48f3 523e 7e69 b6be f653 9bbe
00000010: f269 21be 703c 723d e82a d8bb d723 a93e
00000020: a9b7 f3bc 218c f83d 4eb1 febd 7afc cbbd
00000030: a0b0 c7be aa6e 8abe 0e54 2cbe 60c6 773c
00000040: b844 253e 58d6 7a3e d0c5 6bbe f27e edbd
00000050: 02c2 403e c290 b63e dae6 0ebd 8a02 cf3e
00000060: a4c3 86bd d8f0 303d f643 bd3e 92e7 c1be
00000070: 8696 83be 68ab d3bd 54f4 22be 9e98 b43e
00000080: 0c7c 87be c070 40be 3208 92be 4ec3 c3be
00000090: 662e 64be 84f7 c03e f4be 593e a4ec 5f3e
000000a0: 7e1f 8b3c b0ac 4abe a067 8b3d e47e c3be
000000b0: d275 97be ae8d 57be 57bc 823e 637b 713e
000000c0: 82e8 2fbe f304 79bb 348f 8a3e 786a d53e
000000d0: 2e1d 263e e8c8 6d3d ac25 8c3e 9125 76be
000000e0: 04cd 9b3d 8a0e a2be fcde 90be b2f4 57be
000000f0: 0850 413e f1e7 2f3e a839 73be 7663 d83d
00000100: 8a24 753e b74a e4bc eaef 643d 1d8a 123e
00000110: bd73 913e bc0a ca3e c499 8fbe 02a5 36bd
00000120: e48e 0e3e 81d3 a43e 62fd ae3e 1ebe b13e
00000130: 0465 a63d 8af1 bebe 18d4 193d 18c4 82be
00000140: cccc c2be 2ab7 b93e caee 9e3e a581 d0be
00000150: 545d 873d 264d afbd 6b9b b1bd 64f2 3dbe
00000160: 08c7 1a3e aab4 8ebe d576 fd3d 3c5c 2f3e
00000170: f2d2 853e a81d 043e a8e0 cebe fae1 94be
00000180: 245c 3b3e 3ac6 5c3d e697 b2be 3271 75be
00000190: 94b1 bf3e 8477 573e 5847 36be 886e d2bd
000001a0: 741d c7be c072 f0bb 2068 9dbe 3d3b a1be
000001b0: 60f9 3dbd 462f c73c 7ad7 46be 122b 613e
000001c0: 8064 8abe 081a b13e f60a a13e 5481 99be
000001d0: 1a29 96bd 23ba da3c 3042 c63d 28e8 383e

bias f4 [20]
0.096780986 -0.006202351 -0.19919609 0.3238657 -0.39161175 -0.2419715 -0.094177455 -0.20261724
-0.14338607 -0.33460915 -0.052572712 0.23290485 -0.29320234 -0.020951033 0.24146372 -0.07388575
-0.07030221 -0.035219133 0.053346813 0.37139636
00000000: 1c35 c63d 173d cbbb 0ffa 4bbe bad1 a53e
00000010: 5681 c8be 60c7 77be 1ce0 c0bd e57a 4fbe
00000020: ccd3 12be e451 abbe 7c56 57bd 9c7e 6e3e
00000030: 9e1e 96be 80a1 abbc 4442 773e 6951 97bd
00000040: 9bfa 8fbd f041 10bd 3082 5a3d aa27 be3e

weight f4 [3, 20]
0.16343021 0.16423073 0.21229532 -0.14689851 -0.20087081 -0.10600689 0.20099561 -0.0009800161
-0.067468986 -0.17135254 -0.20728904 -0.18829241 0.00048266933 0.12262732 0.10878615 -0.17023817
0.085592315 -0.17497444 -0.12545985 -0.22663693 -0.03988926 -0.0793291 -0.20065355 -0.2603857
-0.03498988 0.0028917193 -0.12653393 0.082052186 -0.2398667 -0.015090605 0.17866507 -0.15494189
0.1725679 0.08098003 -0.20476434 0.10113874 -0.067698255 -0.0998196 0.15194696 -0.21890247
0.0692084 -0.033615943 0.15968043 0.2604228 0.10744426 0.07896873 -0.07755796 -0.04531137
-0.18937333 0.12116003 0.19355649 0.2162846 -0.17421615 0.009972841 -0.14257203 -0.12818393
-0.03451282 0.07641652 -0.02820446 0.16926743
00000000: 405a 273e 1a2c 283e f263 593e 906c 16be
00000010: 14b1 4dbe 241a d9bd cbd1 4d3e e273 80ba
00000020: 2e2d 8abd 0a77 2fbe 9443 54be bacf 40be
00000030: c80e fd39 0824 fb3d 46cb de3d ea52 2ebe
00000040: 064b af3d 802c 33be 8c78 00be 8313 68be
00000050: ec62 23bd 4c77 a2bd 2078 4dbe 4651 85be
00000060: 8c51 0fbd 0083 3d3b 1c92 01be fa0a a83d
00000070: 9e9f 75be 963e 77bc faf3 363e 16a9 1ebe
00000080: a4b5 303e dcd8 a53d bead 51be d421 cf3d
00000090: 62a5 8abd 386e ccbd fc97 1b3e f827 60be
000000a0: 22bd 8d3d dfb0 09bd 4483 233e 2356 853e
000000b0: bc0b dc3d 5cba a13d b5d6 9ebd 6a98 39bd
000000c0: 15eb 41be c022 f83d ac33 463e b679 5d3e
000000d0: b865 32be 2065 233c 67fe 11be a642 03be
000000e0: 515d 0dbd 4480 9c3d 0a0d e7bc 7154 2d3e

bias f4 [3]
-0.32516217 0.0034554177 0.30598474
00000000: a87b a6be 4a74 623b 08aa 9c3e
