system/models/maternal_iid_unbalanced/FedAvg_server.pt (torch, 4163 bytes, 4 tensors)

weight f4 [20, 6]
000000 1a 08 19 bc 4e dc 59 3e 98 ba b0 be 9c 6d 9a be
       -0.0093403105 0.21275446 -0.3451736 -0.3016175
000010 56 58 22 be 2c 13 ae 3d 36 15 25 bc ea 26 a5 3e
       -0.1585401 0.084997505 -0.010075858 0.32256252
000020 d0 3e 1b bd 47 4f e5 3d f4 de fe bd b8 66 c0 bd
       -0.0379017 0.111967616 -0.12444869 -0.09394592
000030 a0 b0 c7 be aa 6e 8a be 0e 54 2c be 60 c6 77 3c
       -0.39001942 -0.27037555 -0.1682894 0.01512298
000040 b8 44 25 3e 58 d6 7a 3e b8 d4 85 be e2 09 1f be
       0.16139495 0.24495828 -0.26138854 -0.15531114
000050 fe 8c 2a 3e 44 fb b1 3e 85 b2 92 bd 2e b7 ab 3e
       0.16655347 0.34762013 -0.07162956 0.33538193
000060 a4 c3 86 bd d8 f0 30 3d f6 43 bd 3e 92 e7 c1 be
       -0.06580284 0.043198436 0.36965913 -0.37871987
000070 86 96 83 be 68 ab d3 bd 54 f4 22 be 9e 98 b4 3e
       -0.25700778 -0.103354275 -0.15913516 0.35272688
000080 0c 7c 87 be c0 70 40 be 32 08 92 be 4e c3 c3 be
       -0.26461828 -0.1879301 -0.28521878 -0.38234943
000090 ee d2 6c be ce 17 b9 3e 5a 05 47 3e 34 5a 52 3e
       -0.23127338 0.36150974 0.19435635 0.20542222
0000a0 bb b0 a4 3c 90 cb 4f be 08 93 8c 3d 02 51 c3 be
       0.020103803 -0.20292497 0.068639815 -0.38147742
0000b0 8c 2f 97 be a2 a5 57 be 86 69 83 3e 46 b3 73 3e
       -0.29528463 -0.21059278 0.25666445 0.23798856
0000c0 a2 8b 36 be 40 24 41 bc e1 e9 86 3e cd 8f d1 3e
       -0.17826703 -0.011788428 0.2635031 0.40930024
0000d0 65 d4 25 3e f6 5c 63 3d ac 25 8c 3e 91 25 76 be
       0.16194303 0.055508576 0.2737249 -0.24037768
0000e0 04 cd 9b 3d 8a 0e a2 be fc de 90 be b2 f4 57 be
       0.07607463 -0.31651717 -0.28295124 -0.21089438
0000f0 14 8d 3d 3e 44 f6 29 3e 72 95 74 be 79 19 f5 3d
       0.18510848 0.16597849 -0.23885134 0.11967749
000100 ca 14 6a 3e 6a d1 3c bd 8a ff fb 3c 28 1f e7 3d
       0.22859493 -0.04609815 0.030761499 0.112852395
000110 e8 93 89 3e 8a d3 c9 3e bb 42 9f be e6 2c e9 bd
       0.26870656 0.39419204 -0.311056 -0.11385517
000120 b0 f0 16 3e f8 ee a4 3e fa 2f ad 3e 32 2d b4 3e
       0.14740252 0.3221357 0.33825666 0.3519073
000130 04 65 a6 3d 41 a5 be be 18 d4 19 3d 18 c4 82 be
       0.08124736 -0.37235454 0.037555784 -0.25540233
000140 cc cc c2 be 2a b7 b9 3e ca ee 9e 3e a5 81 d0 be
       -0.38046873 0.36272556 0.31041557 -0.4072391
000150 c6 7f 8b 3d 34 76 a6 bd 72 54 a8 bd cf ca 3f be
       0.0681148 -0.08128014 -0.08219232 -0.18729709
000160 76 e5 1e 3e a0 7b 89 be 9a b9 0e 3e 20 40 44 3e
       0.1551722 -0.2685213 0.13937989 0.19165087
000170 e6 38 8f 3e 62 67 11 3e a8 e0 ce be a8 2e 8c be
       0.27973098 0.14199594 -0.40405774 -0.27379346
000180 ae 6a 44 3e d4 50 8a 3d 19 53 ac be 02 cd 73 be
       0.1918132 0.06753698 -0.33657148 -0.23808673
000190 70 d1 c1 3e 7d 68 74 3e 58 47 36 be 88 6e d2 bd
       0.378551 0.23867984 -0.17800653 -0.102749884
0001a0 74 1d c7 be c0 72 f0 bb 20 68 9d be 3d 3b a1 be
       -0.38889658 -0.007337898 -0.30743504 -0.31490508
0001b0 04 8a 0e bd f8 43 2e 3d e4 6f 3a be 6a 02 6e 3e
       -0.03479959 0.04254529 -0.18206745 0.23243108
0001c0 f5 5a 84 be 3c d3 b4 3e d6 12 95 3e 00 f7 a7 be
       -0.25850645 0.3531741 0.29115933 -0.32805634
0001d0 6b b1 b4 bd 68 a3 bf 3c 76 88 8c 3d c2 a6 f9 3d
       -0.08822902 0.023393348 0.06861965 0.1219001

bias f4 [20]
000000 6b 51 03 3e 42 9b aa 3b 0f fa 4b be cd 2c 6d 3e
       0.12824027 0.0052064965 -0.19919609 0.23161621
000010 56 81 c8 be 60 c7 77 be 7c 81 c5 bd 10 28 4d be
       -0.39161175 -0.2419715 -0.09643838 -0.20034814
000020 a6 38 13 be e4 51 ab be 88 f9 9f bd 0e be 0c 3e
       -0.14377078 -0.33460915 -0.07811266 0.13744375
000030 24 58 94 be 80 a1 ab bc 88 38 83 3e 2c 6c 59 bd
       -0.28973496 -0.020951033 0.25629067 -0.053081676
000040 fa 0c 0f bd f0 41 10 bd 38 62 7a 3d 5c 99 95 3e
       -0.034924485 -0.035219133 0.061128825 0.29218566

weight f4 [3, 20]
000000 16 db 3c 3e 40 f2 16 3e f2 63 59 3e 02 16 8d bd
       0.1844295 0.14740849 0.21229532 -0.06888963
000010 14 b1 4d be 24 1a d9 bd 8e 29 2c 3e e8 be 9e ba
       -0.20087081 -0.10600689 0.16812727 -0.0012111338
000020 8c f6 c5 bd 0a 77 2f be 27 74 54 be 92 0e 41 be
       -0.09666166 -0.17135254 -0.20747434 -0.18853214
000030 d0 ca d7 bc 08 24 fb 3d 92 63 e9 3d 93 4c 4c be
       -0.026341826 0.12262732 0.11395945 -0.19951086
000040 d8 d8 e0 3d 80 2c 33 be a4 5d b0 bd b2 28 10 be
       0.1097886 -0.17497444 -0.086116105 -0.14078024
000050 c5 52 25 bd 37 37 76 bd 20 78 4d be d9 b9 5d be
       -0.04036214 -0.06011125 -0.20065355 -0.21652927
000060 8c 51 0f bd 00 83 3d 3b fc bf e6 bd d6 c4 aa 3d
       -0.03498988 0.0028917193 -0.11267087 0.08338325
000070 c5 ce 5f be 96 3e 77 bc 60 09 44 3e d9 e7 ef bd
       -0.2185622 -0.015090605 0.19144201 -0.11714143
000080 21 5c 3e 3e dc d8 a5 3d e8 23 50 be 08 04 f7 3d
       0.18589832 0.08098003 -0.20326197 0.12061316
000090 50 d7 28 bd 38 6e cc bd 26 27 28 3e b0 4b 42 be
       -0.041220963 -0.0998196 0.16421184 -0.18974185
0000a0 37 66 47 3d 2e 81 13 bd 44 83 23 3e 34 e9 0d 3e
       0.048681464 -0.036011867 0.15968043 0.13858491
0000b0 bc 0b dc 3d 5c ba a1 3d 44 d4 6f bd 94 18 3e bd
       0.10744426 0.07896873 -0.05855204 -0.04641016
0000c0 ec d6 39 be c0 22 f8 3d 10 4f 39 3e d8 04 37 3e
       -0.18148392 0.12116003 0.18096566 0.17872941
0000d0 53 94 24 be 20 65 23 3c 73 d4 18 be 58 74 f2 bd
       -0.16072206 0.009972841 -0.14924793 -0.11838597
0000e0 b4 76 ae bd 44 80 9c 3d 40 73 a3 bd cc 42 5e 3d
       -0.085187346 0.07641652 -0.079809666 0.05426292

bias f4 [3]
000000 00 f4 0f be 10 8f b2 3d e3 48 1b 3d
       -0.14057922 0.08718693 0.037911307
