system/models/maternal_iid_unbalanced/FedProx_server.pt (torch, 3657 bytes, 4 tensors)

weight f4 [20, 6]
-0.015336754 0.20600677 -0.3562736 -0.3033749 -0.15763026 0.05914095 -0.0065961853 0.33035317
-0.029750232 0.121361054 -0.12436094 -0.0996014 -0.39001942 -0.27037555 -0.1682894 0.01512298
0.16139495 0.24495828 -0.23024245 -0.11595744 0.1882475 0.35657668 -0.034885645 0.40432665
-0.06580284 0.043198436 0.36965913 -0.37871987 -0.25700778 -0.103354275 -0.15913516 0.35272688
-0.26461828 -0.1879301 -0.28521878 -0.38234943 -0.22283274 0.37688953 0.21264249 0.21867642
0.016983211 -0.1979233 0.06806843 -0.38182747 -0.2958209 -0.21050152 0.25534305 0.23582216
-0.17178464 -0.0037987074 0.2706245 0.41682845 0.16222128 0.05805453 0.2737249 -0.24037768
0.07607463 -0.31651717 -0.28295124 -0.21089438 0.18878642 0.17178968 -0.2375179 0.10566372
0.23939663 -0.027859371 0.055896506 0.14311162 0.28409255 0.39461496 -0.28046754 -0.044582892
0.13921484 0.32192352 0.3417725 0.3471523 0.08124736 -0.37293965 0.037555784 -0.25540233
-0.38046873 0.36272556 0.31041557 -0.4072391 0.06609657 -0.08559537 -0.08672127 -0.18549451
0.15115118 -0.27872038 0.12375875 0.17124388 0.26136804 0.12901762 -0.40405774 -0.29079598
0.182969 0.053900693 -0.34881473 -0.23968914 0.3744018 0.2104176 -0.17800653 -0.102749884
-0.38889658 -0.007337898 -0.30743504 -0.31490508 -0.046382256 0.02431142 -0.19418499 0.21989012
-0.27029935 0.34589708 0.31454062 -0.29980826 -0.0733144 0.026702294 0.09680776 0.18058085
00000000: 0247 7bbc 70f3 523e 7e69 b6be f453 9bbe
00000010: d469 21be c83d 723d d024 d8bb 0d24 a93e
00000020: c2b6 f3bc 258c f83d f3b0 febd d2fb cbbd
00000030: a0b0 c7be aa6e 8abe 0e54 2cbe 60c6 773c
00000040: b844 253e 58d6 7a3e adc4 6bbe 187b edbd
00000050: f4c3 403e 3891 b63e 40e4 0ebd e703 cf3e
00000060: a4c3 86bd d8f0 303d f643 bd3e 92e7 c1be
00000070: 8696 83be 68ab d3bd 54f4 22be 9e98 b43e
00000080: 0c7c 87be c070 40be 3208 92be 4ec3 c3be
00000090: 442e 64be aaf7 c03e f4be 593e b6ec 5f3e
000000a0: 6020 8b3c 68ac 4abe 7667 8b3d e47e c3be
000000b0: d675 97be b68d 57be 53bc 823e 5d7b 713e
000000c0: 50e8 2fbe bcf3 78bb 4b8f 8a3e 8a6a d53e
000000d0: 561d 263e 96ca 6d3d ac25 8c3e 9125 76be
000000e0: 04cd 9b3d 8a0e a2be fcde 90be b2f4 57be
000000f0: 3a51 413e a2e9 2f3e e437 73be 3866 d83d
00000100: 6424 753e 5639 e4bc bcf3 643d da8b 123e
00000110: 9474 913e f90a ca3e 7199 8fbe 8d9c 36bd
00000120: 568e 0e3e 29d3 a43e cefc ae3e f2bd b13e
00000130: 0465 a63d f2f1 bebe 18d4 193d 18c4 82be
00000140: cccc c2be 2ab7 b93e caee 9e3e a581 d0be
00000150: a35d 873d a04c afbd ec9a b1bd 46f2 3dbe
00000160: 60c7 1a3e 70b4 8ebe 3a75 fd3d 8e5a 2f3e
00000170: 08d2 853e 321d 043e a8e0 cebe 36e3 94be
00000180: 3a5c 3b3e f9c6 5c3d d897 b2be 1271 75be
00000190: 98b1 bf3e b677 573e 5847 36be 886e d2bd
000001a0: 741d c7be c072 f0bb 2068 9dbe 3d3b a1be
000001b0: 52fb 3dbd be28 c73c 6ed8 46be e02a 613e
000001c0: ad64 8abe 6c19 b13e 780b a13e 7880 99be
000001d0: dc25 96bd c5be da3c 2643 c63d 30ea 383e

bias f4 [20]
0.09678264 -0.00620081 -0.19919609 0.32388023 -0.39161175 -0.2419715 -0.09417614 -0.20261776
-0.14338353 -0.33460915 -0.052563682 0.23291615 -0.29320836 -0.020951033 0.24146622 -0.073897496
-0.070301495 -0.035219133 0.053341664 0.37140587
00000000: fa35 c63d 2a30 cbbb 0ffa 4bbe a1d3 a53e
00000010: 5681 c8be 60c7 77be 6cdf c0bd 087b 4fbe
00000020: 22d3 12be e451 abbe 044d 57bd 9281 6e3e
00000030: 681f 96be 80a1 abbc ec42 773e 9257 97bd
00000040: 3bfa 8fbd f041 10bd ca7c 5a3d e928 be3e

weight f4 [3, 20]
0.16342996 0.1642307 0.21229532 -0.14689878 -0.20087081 -0.10600689 0.2009954 -0.0009799834
-0.0674694 -0.17135254 -0.20728916 -0.18829387 0.0004817943 0.12262732 0.10878603 -0.17023987
0.08559342 -0.17497444 -0.12545878 -0.22663647 -0.0398901 -0.079332575 -0.20065355 -0.26037717
-0.03498988 0.0028917193 -0.12653632 0.08205196 -0.2398703 -0.015090605 0.17866108 -0.15495089
0.17256632 0.08098003 -0.20476484 0.10113695 -0.06770181 -0.0998196 0.15194148 -0.21890453
0.06920917 -0.03361233 0.15968043 0.2604407 0.10744426 0.07896873 -0.07755464 -0.045311235
-0.18936914 0.12116003 0.1935598 0.21629845 -0.17421395 0.009972841 -0.14257172 -0.12818012
-0.034510523 0.07641652 -0.028199952 0.1692783
00000000: 2f5a 273e 182c 283e f263 593e a26c 16be
00000010: 14b1 4dbe 241a d9bd bdd1 4d3e c972 80ba
00000020: 662d 8abd 0a77 2fbe 9c43 54be 1cd0 40be
00000030: 5699 fc39 0824 fb3d 36cb de3d 5c53 2ebe
00000040: 9a4b af3d 802c 33be 4478 00be 6413 68be
00000050: cd63 23bd 1e79 a2bd 2078 4dbe 2850 85be
00000060: 8c51 0fbd 0083 3d3b bd92 01be dc0a a83d
00000070: 8fa0 75be 963e 77bc eef2 363e 72ab 1ebe
00000080: 3ab5 303e dcd8 a53d e0ad 51be e420 cf3d
00000090: 3fa7 8abd 386e ccbd 8c96 1b3e 8228 60be
000000a0: 8abd 8d3d 15ad 09bd 4483 233e 7c58 853e
000000b0: bc0b dc3d 5cba a13d f8d4 9ebd 4698 39bd
000000c0: fce9 41be c022 f83d 8a34 463e 577d 5d3e
000000d0: 2465 32be 2065 233c 52fe 11be a641 03be
000000e0: e85a 0dbd 4480 9c3d 9603 e7bc 4a57 2d3e

bias f4 [3]
-0.3251247 0.0037207957 0.30592388
00000000: bf76 a6be 98d8 733b 0ea2 9c3e
