system/models/maternal_iid_unbalanced/pFedMe_server.pt (torch, 3651 bytes, 4 tensors)

weight f4 [20, 6]
000000 80 4f 48 bb 1c 42 60 3e 15 09 ac be 0a d4 99 be
       -0.0030564964 0.21900219 -0.3360068 -0.30044585
000010 28 03 21 be 50 34 e0 3d 80 86 04 bc 74 bb a5 3e
       -0.1572386 0.10947478 -0.008088708 0.32369578
000020 80 65 14 bd 98 3d dd 3d 98 ad fc bd cc 58 a4 bd
       -0.03622961 0.10802764 -0.12337798 -0.08024749
000030 a0 b0 c7 be aa 6e 8a be 0d 54 2c be 60 c6 77 3c
       -0.39001942 -0.27037555 -0.16828938 0.01512298
000040 b8 44 25 3e 58 d6 7a 3e 93 b4 8d be 2a 0b 36 be
       0.16139495 0.24495828 -0.2767683 -0.17777696
000050 70 d7 17 3e fe 91 ad 3e 68 11 ac bd 1a 6a 9c 3e
       0.14828277 0.33900446 -0.084017575 0.305497
000060 a4 c3 86 bd d8 f0 30 3d f6 43 bd 3e 92 e7 c1 be
       -0.06580284 0.043198436 0.36965913 -0.37871987
000070 86 96 83 be 68 ab d3 bd 54 f4 22 be 9e 98 b4 3e
       -0.25700778 -0.103354275 -0.15913516 0.35272688
000080 0b 7c 87 be c0 70 40 be 32 08 92 be 4e c3 c3 be
       -0.26461825 -0.1879301 -0.28521878 -0.38234943
000090 d0 07 74 be 06 ad b3 3e 38 8a 3a 3e 94 9d 4a 3e
       -0.23831105 0.35092944 0.18216789 0.19786674
0000a0 c0 e2 af 3c 4f 53 56 be 3c 74 8d 3d ee 29 c3 be
       0.021470428 -0.20930217 0.069069356 -0.38117927
0000b0 77 08 97 be f0 83 57 be 70 e1 83 3e 00 1c 75 3e
       -0.29498646 -0.21046424 0.25757933 0.23936462
0000c0 c5 66 39 be 80 58 71 bc d8 ae 85 3e fc cb cf 3e
       -0.1810561 -0.014730573 0.26109958 0.40585315
0000d0 44 ea 25 3e 78 e6 61 3d ac 25 8c 3e 89 25 76 be
       0.16202646 0.055151433 0.2737249 -0.24037756
0000e0 04 cd 9b 3d 8a 0e a2 be fc de 90 be b1 f4 57 be
       0.07607463 -0.31651717 -0.28295124 -0.21089436
0000f0 98 27 3d 3e 24 1f 28 3e 79 a1 77 be e8 96 fc 3d
       0.18472135 0.16418129 -0.2418269 0.123334706
000100 e8 7e 65 3e 10 0f 53 bd e0 62 7f 3c 00 ba c1 3d
       0.22411692 -0.051528037 0.0155875385 0.09459305
000110 4e ac 81 3e ea b3 c8 3e 02 14 a1 be 88 33 19 be
       0.2532677 0.39199764 -0.31460577 -0.14961064
000120 dc 4b 24 3e 9c 2f ad 3e ba e4 b5 3e d8 6e b8 3e
       0.16044563 0.33825386 0.35526067 0.36022067
000130 04 65 a6 3d 4d c3 b5 be 18 d4 19 3d 18 c4 82 be
       0.08124736 -0.35500565 0.037555784 -0.25540233
000140 cb cc c2 be 2a b7 b9 3e ca ee 9e 3e a5 81 d0 be
       -0.3804687 0.36272556 0.31041557 -0.4072391
000150 40 7e 9c 3d 20 d9 8c bd a0 96 89 bd 12 5d 3f be
       0.07641268 -0.06877351 -0.067181826 -0.18687847
000160 24 c3 20 3e 3b 9c 77 be 8c 40 19 3e cc 68 53 3e
       0.1569944 -0.24180691 0.14966029 0.20645446
000170 3c a2 95 3e e8 4f 1c 3e a8 e0 ce be b8 97 87 be
       0.29225338 0.15264857 -0.40405774 -0.2648294
000180 9c bc 50 3e cc fe ae 3d 3c 0e a3 be 1d b8 70 be
       0.20384449 0.085446924 -0.31846797 -0.23507734
000190 6c a3 c4 3e f2 d7 8c 3e 58 47 36 be 88 6e d2 bd
       0.3840593 0.27508503 -0.17800653 -0.102749884
0001a0 73 1d c7 be c0 72 f0 bb 20 68 9d be 3d 3b a1 be
       -0.38889655 -0.007337898 -0.30743504 -0.31490508
0001b0 00 46 b8 bc 00 12 7b 3d de 33 2b be 2c 0f 78 3e
       -0.022494316 0.061296463 -0.16719005 0.24224538
0001c0 c3 65 7e be 4e a9 bd 3e 58 3e 8f 3e 01 44 b0 be
       -0.24843507 0.37043232 0.27977252 -0.34426883
0001d0 20 17 d0 bd 20 e8 96 3c 40 f9 73 3d b8 4c c6 3d
       -0.10160661 0.018421233 0.059563875 0.09682602

bias f4 [20]
000000 9c 0d 24 3e 10 54 c8 3c 0f fa 4b be 9c d0 45 3e
       0.16020817 0.024454147 -0.19919609 0.1931786
000010 55 81 c8 be 60 c7 77 be 84 4c d1 bd cc a2 4b be
       -0.39161173 -0.2419715 -0.10219672 -0.19886321
000020 1c 3f 12 be e4 51 ab be 7c d9 b1 bd 5c b8 b2 3d
       -0.14281887 -0.33460915 -0.0868406 0.0872657
000030 e2 2b 88 be 80 a1 ab bc 20 a1 95 3e a8 e6 2b bd
       -0.2659598 -0.020951033 0.2922449 -0.041968018
000040 20 e5 39 3c f0 41 10 bd a4 35 a9 3d b8 e7 84 3e
       0.011346132 -0.035219133 0.08262184 0.25958037

weight f4 [3, 20]
000000 e6 e4 58 3e 30 69 11 3e f2 63 59 3e 58 7a 84 bc
       0.21181068 0.14200282 0.21229532 -0.01617162
000010 13 b1 4d be 24 1a d9 bd be e8 1b 3e 00 fe bd ba
       -0.2008708 -0.10600689 0.15225503 -0.0014495254
000020 e9 9e e3 bd 09 77 2f be 02 49 56 be 62 41 41 be
       -0.11114294 -0.17135252 -0.20926288 -0.18872598
000030 e0 c6 39 bd 08 24 fb 3d b4 95 f7 3d 47 d4 5c be
       -0.045355678 0.12262732 0.120891005 -0.21565352
000040 58 d4 0e 3e 7f 2c 33 be 18 a1 41 bd 54 af b9 bd
       0.1394819 -0.17497443 -0.04727277 -0.09066644
000050 40 6a 30 bd 38 d4 33 bd 20 78 4d be 4b b4 45 be
       -0.043070078 -0.04390356 -0.20065355 -0.19307058
000060 8c 51 0f bd 00 83 3d 3b a0 08 d0 bd 18 82 ac 3d
       -0.03498988 0.0028917193 -0.10157895 0.08423251
000070 e2 16 4e be 90 3e 77 bc 16 5d 49 3e f4 ca ba bd
       -0.20125917 -0.0150906 0.19664416 -0.091207415
000080 7e c3 4e 3e dc d8 a5 3d b7 a3 4e be f0 de 10 3e
       0.20191762 0.08098003 -0.2017964 0.14147544
000090 c8 60 d3 bc 38 6e cc bd 6c 19 37 3e 43 08 39 be
       -0.025802985 -0.0998196 0.17880791 -0.18069558
0000a0 50 8f c4 3c 68 c2 3f bd 44 83 23 3e a8 aa 7f 3d
       0.023994118 -0.04681626 0.15968043 0.06241861
0000b0 bc 0b dc 3d 5c ba a1 3d cc 3f 5c bd 0c 9e 40 bd
       0.10744426 0.07896873 -0.05377178 -0.047025725
0000c0 54 b1 3c be c0 22 f8 3d c2 cc 35 3e 54 ab 1c 3e
       -0.1842702 0.12116003 0.1775389 0.15299731
0000d0 4a 83 21 be 20 65 23 3c 40 69 21 be a9 17 fc bd
       -0.15772739 0.009972841 -0.15762806 -0.123092
0000e0 8e 6c 05 be 44 80 9c 3d c0 72 08 be a0 db 9f bb
       -0.13029692 0.07641652 -0.13325024 -0.0048784763

bias f4 [3]
000000 a0 1e 1a 3c fc 99 13 3e e7 15 2d be
       0.009406716 0.14414209 -0.16902886
