system/models/maternal_iid_unbalanced/SCAFFOLD_server.pt (torch, 3663 bytes, 4 tensors)

weight f4 [20, 6]
00000000: 5406 75bc 1670 533e f0e1 b5be c457 9bbe
00000010: f451 21be db36 753d be88 dfbb f40a a93e
00000020: c62d f0bc c162 f93d 5fa9 ffbd 9cc7 ccbd
00000030: a0b0 c7be aa6e 8abe 0d54 2cbe 60c6 773c
00000040: b844 253e 58d6 7a3e e1f6 6abe 76bf ebbd
00000050: 60ad 413e 70d8 b53e 0696 0fbd 28ae cf3e
00000060: a4c3 86bd d8f0 303d f643 bd3e 92e7 c1be
00000070: 8696 83be 68ab d3bd 54f4 22be 9e98 b43e
00000080: 0b7c 87be c070 40be 3208 92be 4ec3 c3be
00000090: 2618 64be 3b48 c13e 503a 5a3e 8698 603e
000000a0: bc41 8b3c 28d3 49be f143 8b3d b681 c3be
000000b0: e877 97be ff88 57be aca7 823e a83a 713e
000000c0: 08b4 2fbe d290 63bb dfe4 8a3e 169d d53e
000000d0: 0a34 263e 29ad 6f3d ac25 8c3e 8925 76be
000000e0: 04cd 9b3d 8a0e a2be fcde 90be b1f4 57be
000000f0: 5410 413e c671 303e d04b 73be 4623 d73d
00000100: ce20 743e c2c0 eebc 00c1 653d 4004 133e
00000110: 9672 913e 7429 c93e 2ce2 8fbe 8c6c 34bd
00000120: 56c0 0e3e 78ce a43e 6621 af3e 60fd b13e
00000130: 0465 a63d cae8 bebe 18d4 193d 18c4 82be
00000140: cbcc c2be 2ab7 b93e caee 9e3e a581 d0be
00000150: e223 893d 2e30 afbd 4913 b0bd 546e 3dbe
00000160: 6c27 1c3e 56e9 8dbe fe73 fb3d b93e 2d3e
00000170: 7a67 843e 94e7 033e a8e0 cebe 2c98 96be
00000180: a04b 3b3e 0d60 5b3d 7871 b2be 444c 75be
00000190: 88fc bf3e 0e50 573e 5847 36be 886e d2bd
000001a0: 731d c7be c072 f0bb 2068 9dbe 3d3b a1be
000001b0: c438 40bd 4afa c33c 78e4 47be 6272 613e
000001c0: c683 8abe 4643 b03e cc50 a13e 5627 99be
000001d0: 0a3c 95bd b485 d03c 85dd c53d 04e2 393e
-0.014955122 0.20648226 -0.3552394 -0.30340397 -0.15753919 0.059866767 -0.006821721 0.3301617
-0.029318701 0.12177039 -0.12483477 -0.0999901 -0.39001942 -0.27037555 -0.16828938 0.01512298
0.16139495 0.24495828 -0.2294574 -0.11511128 0.18913794 0.3551669 -0.035055183 0.40562558
-0.06580284 0.043198436 0.36965913 -0.37871987 -0.25700778 -0.103354275 -0.15913516 0.35272688
-0.26461825 -0.1879301 -0.28521878 -0.38234943 -0.22274837 0.3775042 0.21311307 0.21933183
0.016999118 -0.19709456 0.06800068 -0.381849 -0.2958367 -0.21048354 0.25518548 0.23557532
-0.1715852 -0.003472377 0.2712774 0.4172141 0.16230789 0.058514748 0.2737249 -0.24037756
0.07607463 -0.31651717 -0.28295124 -0.21089436 0.18853885 0.17230901 -0.23759389 0.10504775
0.23840639 -0.029144648 0.056092262 0.1435709 0.28407735 0.3928944 -0.28102243 -0.04404883
0.13940558 0.32188773 0.34205168 0.34763622 0.08124736 -0.3728698 0.037555784 -0.25540233
-0.3804687 0.36272556 0.31041557 -0.4072391 0.06696297 -0.085541114 -0.08597428 -0.18499118
0.15249413 -0.27717084 0.12277983 0.16918458 0.25860196 0.12881309 -0.40405774 -0.29412973
0.18290567 0.053558398 -0.34852195 -0.23954874 0.37497354 0.21026632 -0.17800653 -0.102749884
-0.38889655 -0.007337898 -0.30743504 -0.31490508 -0.046929136 0.023923058 -0.19520748 0.2201629
-0.2705366 0.34426326 0.31506956 -0.29912823 -0.07286842 0.02545438 0.09661392 0.18152624

bias f4 [20]
00000000: 213e c83d 7a1b dabb 0ffa 4bbe 16bd a63e
00000010: 5581 c8be 60c7 77be 12ed bebd c4b5 4fbe
00000020: fe41 12be e451 abbe 2787 5dbd e033 6f3e
00000030: 8e0e 96be 80a1 abbc c6f3 783e 7cb7 9fbd
00000040: 5c77 90bd f041 10bd fecc 513d 9ed3 be3e
0.09777475 -0.0066561075 -0.19919609 0.32566136 -0.39161173 -0.2419715 -0.09322561 -0.20284182
-0.14282987 -0.33460915 -0.05408397 0.23359632 -0.2930798 -0.020951033 0.24311742 -0.07798669
-0.07054016 -0.035219133 0.051220886 0.37270826

weight f4 [3, 20]
00000000: 649f 253e 2a99 283e f263 593e a0fc 12be
00000010: 13b1 4dbe 241a d9bd 23a7 4e3e 70b6 7aba
00000020: a645 85bd 0977 2fbe aafb 53be 1eaa 3ebe
00000030: 46ca 193a 0824 fb3d d809 df3d 9071 2ebe
00000040: 20c0 af3d 7f2c 33be e2ac fdbd 6b5c 66be
00000050: 7bb5 24bd 1c90 a2bd 2078 4dbe 9228 87be
00000060: 8c51 0fbd 0083 3d3b b696 01be d5c1 a73d
00000070: 5296 75be 903e 77bc e640 373e ae2e 20be
00000080: da66 313e dcd8 a53d 5683 52be 1cd3 cf3d
00000090: bcce 8cbd 386e ccbd 46a7 1a3e f355 63be
000000a0: 7dd3 913d 3438 0bbd 4483 233e 427a 853e
000000b0: bc0b dc3d 5cba a13d a477 a0bd 4222 39bd
000000c0: e65e 44be c022 f83d ac9b 453e 08dd 5c3e
000000d0: 3232 33be 2065 233c 4e43 11be d878 03be
000000e0: 0af5 09bd 4480 9c3d 7c99 ecbc f6d2 2e3e
0.16174084 0.16464677 0.21229532 -0.14354181 -0.2008708 -0.10600689 0.20180945 -0.00095639285
-0.06507425 -0.17135252 -0.20701471 -0.18619582 0.0005866628 0.12262732 0.108905494 -0.17035508
0.08581567 -0.17497443 -0.123864904 -0.22496192 -0.040212136 -0.07937643 -0.20065355 -0.2639814
-0.03498988 0.0028917193 -0.12655148 0.081912674 -0.23983124 -0.0150906 0.1789585 -0.15642807
0.17324391 0.08098003 -0.20557913 0.10147688 -0.06875369 -0.0998196 0.15102872 -0.22200756
0.07120416 -0.033989146 0.15968043 0.26069838 0.10744426 0.07896873 -0.0783532 -0.045198686
-0.19176826 0.12116003 0.19297665 0.21568692 -0.17499617 0.009972841 -0.14185831 -0.12839067
-0.033680953 0.07641652 -0.02888178 0.17072663

bias f4 [3]
00000000: f421 a4be 4eb5 8abb e65f 9e3e
-0.32057154 -0.004233039 0.3093254
