system/models/maternal_iid_balanced/FedAvg_server.pt (torch, 4163 bytes, 4 tensors)

weight f4 [20, 6]
0	0xbcbef8e4	-0.02331204
1	0x3e447772	0.1918619
2	0xbebc1752	-0.36736542
3	0xbe9b9df2	-0.3039394
4	0xbe23e09c	-0.1600365
5	0x3d4165e2	0.047216304
6	0xbad3401e	-0.0016117131
7	0x3ea9f9eb	0.33198485
8	0xbcecafa1	-0.02889234
9	0x3e12aa96	0.14322886
10	0xbdfba248	-0.12286812
11	0xbdc5a5a0	-0.09650731
12	0xbec76338	-0.38942885
13	0xbe89ffac	-0.26952875
14	0xbe2b3468	-0.1671921
15	0x3c8580cb	0.016296765
16	0x3e296f66	0.16546401
17	0x3e7fcb74	0.24979955
18	0xbe8f0cda	-0.27939492
19	0xbe38415a	-0.1799368
20	0x3e087192	0.13324574
21	0x3eb60ab8	0.35555053
22	0xbd969b32	-0.0735382
23	0x3e8f8c52	0.28036743
24	0xbd86c3a4	-0.06580284
25	0x3d30f0d8	0.043198436
26	0x3ebd43f6	0.36965913
27	0xbec1e792	-0.37871987
28	0xbe839686	-0.25700778
29	0xbdd3ab68	-0.103354275
30	0xbe22f454	-0.15913516
31	0x3eb4989e	0.35272688
32	0xbe877c0b	-0.26461825
33	0xbe4070c0	-0.1879301
34	0xbe920832	-0.28521878
35	0xbec3c34e	-0.38234943
36	0xbe55abc2	-0.20866302
37	0x3ec5c916	0.3862998
38	0x3e5d4608	0.21608746
39	0x3e7dfd6c	0.24803704
40	0x3cc678ed	0.024227584
41	0xbe396066	-0.1810318
42	0x3d8ba446	0.06818442
43	0xbec383e0	-0.3818655
44	0xbe977cea	-0.2958749
45	0xbe589951	-0.21152236
46	0x3e824652	0.25444275
47	0x3e70fc7a	0.23533812
48	0xbe2a8ffe	-0.16656491
49	0xba71890d	-0.00092138426
50	0x3e8b2a48	0.27180696
51	0x3edd3170	0.4320178
52	0x3e25a876	0.16177544
53	0x3d73b173	0.0594954
54	0x3e8c25ac	0.2737249
55	0xbe762589	-0.24037756
56	0x3d9bcd04	0.07607463
57	0xbea20e8a	-0.31651717
58	0xbe90defc	-0.28295124
59	0xbe57f4b1	-0.21089436
60	0x3e32d946	0.17465696
61	0x3e1f11ee	0.15534183
62	0xbe8152b6	-0.25258416
63	0x3ddea0bf	0.10870504
64	0x3e6a0d4e	0.22856638
65	0xbd747b3e	-0.059687845
66	0x3b95b54a	0.0045687305
67	0x3da3b0f8	0.079927385
68	0x3e66f630	0.2255485
69	0x3ec107aa	0.3770116
70	0xbea0ad36	-0.3138215
71	0xbe2c6114	-0.16833907
72	0x3e10a35e	0.1412482
73	0x3ea09a04	0.31367505
74	0x3ea73822	0.32660013
75	0x3ead0972	0.3379627
76	0x3da63dac	0.08117232
77	0xbec48630	-0.38383627
78	0x3d19d418	0.037555784
79	0xbe82c418	-0.25540233
80	0xbec2cccb	-0.3804687
81	0x3eb9b72a	0.36272556
82	0x3e9eeeca	0.31041557
83	0xbed081a5	-0.4072391
84	0x3d7f9ba8	0.062404305
85	0xbdaf1823	-0.085495256
86	0xbdad8bb6	-0.08473913
87	0xbe3fdf94	-0.18737632
88	0x3e1b933e	0.15192887
89	0xbe8eb3eb	-0.27871642
90	0x3e173544	0.14766413
91	0x3e4d4ab1	0.20048024
92	0x3e9b0ef1	0.30284837
93	0x3ddd3354	0.10800806
94	0xbecee0a8	-0.40405774
95	0xbe778ef4	-0.24175626
96	0x3e47e628	0.19521391
97	0x3d8b35ea	0.06797393
98	0xbeab0a32	-0.33406216
99	0xbe6ef1fc	-0.23334497
100	0x3ec061d8	0.3757465
101	0x3e7351dc	0.23761696
102	0xbe364758	-0.17800653
103	0xbdd26e88	-0.102749884
104	0xbec71d73	-0.38889655
105	0xbbf072c0	-0.007337898
106	0xbe9d6820	-0.30743504
107	0xbea13b3d	-0.31490508
108	0xbca19eba	-0.019729007
109	0x3d810756	0.06300227
110	0xbe12d19e	-0.14337775
111	0x3e517862	0.20456079
112	0xbe87db55	-0.26534525
113	0x3ed71060	0.4200468
114	0x3e8d820a	0.27638274
115	0xbeb1e4be	-0.3474483
116	0xbde78bfd	-0.113059975
117	0x3c99c8be	0.01877248
118	0x3d8aa400	0.06769562
119	0x3db5b1c0	0.08871794

bias f4 [20]
0	0x3da7b40c	0.08188638
1	0xbb0e39e4	-0.0021701986
2	0xbe46c4ad	-0.19410963
3	0x3e20ee75	0.15715964
4	0xbec88155	-0.39161173
5	0xbe77c760	-0.2419715
6	0xbd9b5726	-0.075849816
7	0xbe4ffab4	-0.2031048
8	0xbe119b82	-0.14219478
9	0xbeab51e4	-0.33460915
10	0xbdc1fc76	-0.09471981
11	0x3d8a8e96	0.06765477
12	0xbe99dfdc	-0.30053604
13	0xbcaba180	-0.020951033
14	0x3e788f08	0.24273312
15	0xbbb2764c	-0.005446231
16	0xbd1399be	-0.03603529
17	0xbd1041f0	-0.035219133
18	0x3e1df8de	0.15426967
19	0x3e7e5205	0.24835975

weight f4 [3, 20]
0	0x3e36bb01	0.17844774
1	0x3e370b06	0.17875299
2	0x3e58f33c	0.21186537
3	0xbd2e885d	-0.042610515
4	0xbe4db113	-0.2008708
5	0xbdd91a24	-0.10600689
6	0x3e569ecb	0.20959012
7	0xbac25e84	-0.0014829193
8	0xbd138bf4	-0.03602214
9	0xbe2f7709	-0.17135252
10	0xbe562f30	-0.20916438
11	0xbdedd658	-0.116131485
12	0x3ca8c04d	0.020599509
13	0x3dfb2408	0.12262732
14	0x3de5acec	0.11214623
15	0xbe20994e	-0.15683481
16	0x3da98a24	0.08278301
17	0xbe332c7f	-0.17497443
18	0xbdaf76c2	-0.08567573
19	0xbe200516	-0.1562694
20	0xbc82a472	-0.015947554
21	0xbd91173b	-0.07084509
22	0xbe4e33fe	-0.20137021
23	0xbe0d1e28	-0.13781035
24	0xbd0f518c	-0.03498988
25	0x3b3d8300	0.0028917193
26	0xbe143338	-0.14472663
27	0x3da946ce	0.08265458
28	0xbe8640cf	-0.2622132
29	0xbc773e90	-0.0150906
30	0x3e467d99	0.19383849
31	0xbe0015d1	-0.12508322
32	0x3e1869a0	0.14884043
33	0x3da5d8dc	0.08098003
34	0xbe478d4a	-0.19487491
35	0x3de38311	0.11108983
36	0xbb804338	-0.003914263
37	0xbdcc6e38	-0.0998196
38	0x3e7a2163	0.24426799
39	0xbdea09ea	-0.11427672
40	0x3cf7ada0	0.030234158
41	0xbd67f0b0	-0.05662602
42	0x3e24afc0	0.16082668
43	0x3d09a02c	0.033600017
44	0x3ddc0bbc	0.10744426
45	0x3da1ba5c	0.07896873
46	0xbd8b2f91	-0.06796182
47	0xbd3a013a	-0.045411326
48	0xbe4b3364	-0.19843823
49	0x3df822c0	0.12116003
50	0x3e389294	0.18024665
51	0x3dea0ada	0.11427851
52	0xbe2eb3ce	-0.17060778
53	0x3c236520	0.009972841
54	0xbe1f8c0c	-0.15580767
55	0xbe1b29a6	-0.15152606
56	0xbdc38dfe	-0.09548567
57	0x3d9c8044	0.07641652
58	0xbe2427b2	-0.16030768
59	0xbbba8664	-0.00569229

bias f4 [3]
0	0xbe4733f3	-0.19453411
1	0x3ec8a74e	0.39190143
2	0xbe59f3a0	-0.21284342
