system/models/maternal_iid_balanced/FedALA_server.pt (torch, 3651 bytes, 4 tensors)

weight f4 [20, 6]
-0.030524354 0.1837804 -0.37375224 -0.30588222 -0.1602299 0.021287058 0.045349978 0.39851713
0.034288656 0.279723 -0.118006855 -0.09785158 -0.38796085 -0.2679698 -0.16483867 0.019337663
0.1741947 0.26092142 -0.265845 -0.1557911 0.13729611 0.40340355 -0.050124057 0.27322575
-0.06580284 0.043198436 0.36965913 -0.37871987 -0.25700778 -0.103354275 -0.15913516 0.35272688
-0.26461825 -0.1879301 -0.28521878 -0.38234943 -0.1195524 0.49459404 0.3133633 0.44710654
0.027824016 -0.14820567 0.06645557 -0.38334608 -0.29781026 -0.21373987 0.24784142 0.22699574
-0.09288502 0.08302805 0.3412576 0.5874876 0.17068416 0.0711145 0.2737249 -0.24037756
0.07607463 -0.31651717 -0.28295124 -0.21089436 0.17033285 0.15408298 -0.25688964 0.09953803
0.2340357 -0.059320744 0.011616381 0.08945723 0.20500086 0.4215185 -0.31169355 -0.20061713
0.1488619 0.33573484 0.35077792 0.35266143 0.081171736 -0.3606625 0.037555784 -0.25540233
-0.3804687 0.36272556 0.31041557 -0.4072391 0.056823313 -0.092478104 -0.09057067 -0.18736431
0.14124244 -0.29553312 0.14173016 0.186142 0.31287855 0.067281306 -0.40405774 -0.22839916
0.18349177 0.048947737 -0.34997606 -0.23419654 0.36836624 0.20030999 -0.17800653 -0.102749884
-0.38889655 -0.007337898 -0.30743504 -0.31490508 -0.047347464 0.013754364 -0.15211229 0.10755301
-0.31281656 0.43392783 0.26076984 -0.36322075 -0.14024171 -0.025710221 0.08417766 0.10197903
00000000: 360e fabc ee30 3c3e 745c bfbe 989c 9cbe
00000010: 4f13 24be 3262 ae3c e6c0 393d 700a cc3e
00000020: 4372 0c3d da37 8f3e 94ad f1bd 6966 c8bd
00000030: cea2 c6be 5633 89be 78cb 28be 056a 9e3c
00000040: 1860 323e 7e97 853e d61c 88be b487 1fbe
00000050: 5a97 0c3e e98a ce3e e24e 4dbd 3fe4 8b3e
00000060: a4c3 86bd d8f0 303d f643 bd3e 92e7 c1be
00000070: 8696 83be 68ab d3bd 54f4 22be 9e98 b43e
00000080: 0b7c 87be c070 40be 3208 92be 4ec3 c3be
00000090: e4d7 f4bd 6e3b fd3e 2871 a03e 26eb e43e
000000a0: 31ef e33c 3ac3 17be dc19 883d f045 c4be
000000b0: 967a 98be a0de 5abe 24ca 7d3e 9271 683e
000000c0: 803a bebd 9c0a aa3d 51b9 ae3e 9665 163f
000000d0: d4c7 2e3e 7ba4 913d ac25 8c3e 8925 76be
000000e0: 04cd 9b3d 8a0e a2be fcde 90be b1f4 57be
000000f0: bc6b 2e3e eec7 1d3e 0a87 83be 98da cb3d
00000100: 0ea7 6f3e 4ffa 72bd a252 3e3c 5a35 b73d
00000110: bfeb 513e 46d1 d73e 4c96 9fbe 946e 4dbe
00000120: 416f 183e 70e5 ab3e 2a99 b33e 0a90 b43e
00000130: 5e3d a63d c1a8 b8be 18d4 193d 18c4 82be
00000140: cbcc c2be 2ab7 b93e caee 9e3e a581 d0be
00000150: 90bf 683d 2965 bdbd 1e7d b9bd 6edc 3fbe
00000160: dca1 103e 1e50 97be b621 113e 029c 3e3e
00000170: 9e31 a03e c8ca 893d a8e0 cebe 78e1 69be
00000180: 44e5 3b3e 6c7d 483d 1030 b3be 38d1 6fbe
00000190: 809a bc3e 101e 4d3e 5847 36be 886e d2bd
000001a0: 731d c7be c072 f0bb 2068 9dbe 3d3b a1be
000001b0: 6aef 41bd fc59 613c 53c3 1bbe c144 dc3d
000001c0: 7e29 a0be ca2b de3e a083 853e 12f8 b9be
000001d0: 869b 0fbe 3e9e d2bc 5665 ac3d 62da d03d

bias f4 [20]
0.049631856 -0.027588276 -0.18319647 0.13600506 -0.39161173 -0.2419715 -0.07127297 -0.21185693
-0.15650323 -0.33460915 -0.09187764 0.02212876 -0.2764855 -0.020951033 0.21914737 0.01628517
-0.08100072 -0.035219133 0.19650778 0.2716403
00000000: c64a 4b3d cf00 e2bc db97 3bbe e944 0b3e
00000010: 5581 c8be 60c7 77be 90f7 91bd 06f1 58be
00000020: 6242 20be e451 abbe 582a bcbd 6047 b53c
00000030: 828f 8dbe 80a1 abbc 2b68 603e 7a68 853c
00000040: b5e3 a5bd f041 10bd 5639 493e 7014 8b3e

weight f4 [3, 20]
0.169404 0.3260153 0.2107485 0.02187806 -0.2008708 -0.10600689 0.44217545 -0.0015222736
0.20181209 -0.17135252 -0.20972925 0.07828989 0.1409335 0.12262732 0.10770526 -0.02414223
0.045698076 -0.17497443 -0.093346596 -0.24926063 -0.014352435 -0.18594545 -0.20408326 -0.17411876
-0.03498988 0.0028917193 -0.32148755 0.08031522 -0.4550014 -0.0150906 0.18883556 -0.26061344
0.05869921 0.08098003 -0.18907747 0.036040157 -0.029701825 -0.0998196 0.27416253 -0.04655867
0.03768254 -0.08878713 0.16465375 0.005417168 0.10744426 0.07896873 -0.123783365 -0.043035753
-0.24348395 0.12116003 0.18581253 0.055388592 -0.20079802 0.009972841 -0.15716064 -0.20916861
-0.032611202 0.07641652 -0.18253165 0.019580372
00000000: 3e78 2d3e 7aeb a63e 74ce 573e 9e39 b33c
00000010: 13b1 4dbe 241a d9bd d264 e23e 0787 c7ba
00000020: d4a7 4e3e 0977 2fbe 44c3 56be 7356 a03d
00000030: df50 103e 0824 fb3d 9394 dc3d edc5 c5bc
00000040: e82d 3b3d 7f2c 33be 802c bfbd 2e3e 7fbe
00000050: 7a26 6bbc 7c68 3ebe 34fb 50be 304c 32be
00000060: 8c51 0fbd 0083 3d3b 049a a4be 4e7c a43d
00000070: f2f5 e8be 903e 77bc 1c5e 413e 206f 85be
00000080: 956e 703d dcd8 a53d 869d 41be d89e 133d
00000090: 3e51 f3bc 386e ccbd 085f 8c3e 4eb4 3ebd
000000a0: 0259 1a3d 07d6 b5bd fe9a 283e 8082 b13b
000000b0: bc0b dc3d 5cba a13d 2282 fdbd 4246 30bd
000000c0: db53 79be c022 f83d a445 3e3e 26df 623d
000000d0: ff9d 4dbe 2065 233c b8ee 20be 4c30 56be
000000e0: 5393 05bd 4480 9c3d 94e9 3abe 0467 a03c

bias f4 [3]
-0.34224206 0.5257021 -0.1991406
00000000: 5a3a afbe 6a94 063f 83eb 4bbe
