system/models/maternal_patho_noniid_unbalanced/MOON_server.pt (torch, 4151 bytes, 4 tensors)

weight f4 [20, 6]
00000000: 70f0 46ba 94f7 603e 6e07 acbe a0c6 97be
00000010: 16b8 1ebe 0c1b d03d 9287 313c 38e8 b13e
00000020: 8e43 0abc 2e2d 073e a823 f8bd f90a 75bd
00000030: a0b0 c7be aa6e 8abe 0d54 2cbe 60c6 773c
00000040: b844 253e 59d6 7a3e 844d 8cbe 684c 36be
00000050: 0693 163e 7ce7 b33e b27c a9bd 7ef4 943e
00000060: a4c3 86bd d8f0 303d f643 bd3e 92e7 c1be
00000070: 8696 83be 68ab d3bd 54f4 22be 9e98 b43e
00000080: 0c7c 87be c070 40be 3208 92be 4ec3 c3be
00000090: 00ec 5ebe 8e8f c03e 4439 583e 5e3a 653e
000000a0: 3e9d c33c 181a 3ebe 3c74 8d3d ee29 c3be
000000b0: 7808 97be f083 57be 70e1 833e 001c 753e
000000c0: b343 2cbe eef3 37ba e8fe 8d3e 0e1b d73e
000000d0: 4b3f 273e baee 8e3d ac25 8c3e 8b25 76be
000000e0: 04cd 9b3d 8a0e a2be fcde 90be b2f4 57be
000000f0: 52e2 353e c04c 203e 2605 80be 5728 f13d
00000100: fcf0 623e d613 7bbd e468 69bb 75b5 883d
00000110: 10d8 603e 7ae6 c03e d856 a1be d8f8 3ebe
00000120: 8604 1c3e da3a a73e c1f5 ae3e c277 b33e
00000130: 0465 a63d bafc bbbe 18d4 193d 18c4 82be
00000140: cccc c2be 2ab7 b93e caee 9e3e a681 d0be
00000150: 186f 8d3d 34d2 9ebd e62f 9fbd 3f59 40be
00000160: 3403 243e ef93 86be 8f83 103e 4ae2 4a3e
00000170: c8fb 913e 7196 033e a8e0 cebe dbdf 86be
00000180: 8923 5f3e 3ea0 d23d bab2 98be c2aa 65be
00000190: 20b1 c53e a253 973e 5847 36be 886e d2bd
000001a0: 741d c7be c172 f0bb 2068 9dbe 3e3b a1be
000001b0: 459f 8abc 68a9 983d a6ab 19be 0708 703e
000001c0: 565e 7fbe d4c3 cf3e 9ec7 8d3e fb71 b3be
000001d0: 7650 e0bd be5d ab3c aa48 753d 9646 a73d
-0.00075889286 0.21969444 -0.33599418 -0.29643726 -0.1549991 0.10161409 0.010835545 0.3474748
-0.008438958 0.13200828 -0.12116176 -0.059824917 -0.39001942 -0.27037555 -0.16828938 0.01512298
0.16139495 0.2449583 -0.2740289 -0.17802584 0.14704522 0.35137546 -0.08275737 0.29092783
-0.06580284 0.043198436 0.36965913 -0.37871987 -0.25700778 -0.103354275 -0.15913516 0.35272688
-0.26461828 -0.1879301 -0.28521878 -0.38234943 -0.21769714 0.37609524 0.21115595 0.22385547
0.02387869 -0.18564641 0.069069356 -0.38117927 -0.2949865 -0.21046424 0.25757933 0.23936462
-0.168227 -0.00070172444 0.2773354 0.4201283 0.16332738 0.06979127 0.2737249 -0.24037759
0.07607463 -0.31651717 -0.28295124 -0.21089438 0.17762116 0.15654278 -0.25003928 0.11775272
0.2216224 -0.061298214 -0.0035615498 0.06675235 0.21957421 0.3767584 -0.3151157 -0.18649614
0.152361 0.32662088 0.3417187 0.35052305 0.08124736 -0.36716253 0.037555784 -0.25540233
-0.38046873 0.36272556 0.31041557 -0.40723914 0.06905955 -0.07754937 -0.07772808 -0.18784045
0.16016847 -0.2628474 0.14112686 0.19812885 0.28512406 0.12850358 -0.40405774 -0.26342663
0.217909 0.1028447 -0.29823858 -0.2242842 0.38611698 0.29555994 -0.17800653 -0.102749884
-0.38889658 -0.0073378985 -0.30743504 -0.3149051 -0.016921649 0.07454187 -0.15006885 0.23440562
-0.2493833 0.40579093 0.27691358 -0.35047898 -0.10952847 0.020918723 0.05988375 0.0816776

bias f4 [20]
00000000: 581a 173e 6118 3d3d 10fa 4bbe 206d 303e
00000010: 5681 c8be 60c7 77be 66d7 9bbd cca2 4bbe
00000020: 71f8 01be e451 abbe 6071 c8bd 7ef8 2e3d
00000030: 8c67 8fbe 80a1 abbc 48ab 873e b019 0dbd
00000040: 0287 083d f041 10bd 6858 043e bc84 753e
0.14756143 0.046165828 -0.1991961 0.17229128 -0.39161175 -0.2419715 -0.07609443 -0.19886321
-0.12692429 -0.33460915 -0.097872496 0.04271745 -0.28008687 -0.020951033 0.26497865 -0.034448326
0.03333188 -0.035219133 0.1292435 0.23976415

weight f4 [3, 20]
00000000: 9a6b 493e 5865 3c3e f263 593e 842e 1a3d
00000010: 14b1 4dbe 241a d9bd ce66 3e3e 00fe bdba
00000020: d898 64bd 0a77 2fbe 32e2 55be b8a4 f6bd
00000030: 76f0 033c 0924 fb3d 1f72 f33d 1d32 28be
00000040: 5c69 0d3e 7f2c 33be 187a 953b 84cf adbd
00000050: e47c 44bc 2ff4 5fbd 2078 4dbe 2892 31be
00000060: 8c51 0fbd 0083 3d3b 4c59 f5bd 1882 ac3d
00000070: eca8 6dbe 903e 77bc 761a 493e e624 f6bd
00000080: b6cb 283e dcd8 a53d 9205 4abe aa2d f13d
00000090: a86c 2f39 386e ccbd 6e40 4c3e 77c0 1fbe
000000a0: 37c8 033c 10c8 9fbd 4483 233e 5a4f 35bc
000000b0: bc0b dc3d 5cba a13d f5cb 8dbd 0c9e 40bd
000000c0: 8ed2 55be c022 f83d c6ab 353e c6cd e83d
000000d0: 0c3c 32be 2065 233c 3afa 23be bc69 1abe
000000e0: e099 1ebe 4480 9c3d b6ad 52be 83ed 10bd
0.19669953 0.18398035 0.21229532 0.037642017 -0.20087081 -0.10600689 0.18593904 -0.0014495254
-0.055809826 -0.17135254 -0.20887068 -0.12043136 0.008052936 0.122627325 0.11887001 -0.16425367
0.13809723 -0.17497443 0.004561674 -0.08486846 -0.011992667 -0.05467623 -0.20065355 -0.1734091
-0.03498988 0.0028917193 -0.11979923 0.08423251 -0.2320897 -0.0150906 0.19639 -0.120187566
0.1648396 0.08098003 -0.19728687 0.11776288 0.00016729778 -0.0998196 0.19946453 -0.15600763
0.00804334 -0.07801831 0.15968043 -0.011066282 0.10744426 0.07896873 -0.06923667 -0.047025725
-0.20881101 0.12116003 0.17741308 0.11367373 -0.17405719 0.009972841 -0.16013423 -0.15079397
-0.15488386 0.07641652 -0.20574078 -0.03538276

bias f4 [3]
00000000: 16cc c83d f84a 743e 6445 b4be
0.09804551 0.23856723 -0.3520919
