system/models/maternal_practical_noniid_unbalanced/FedAvg_server.pt (torch, 4163 bytes, 4 tensors)

weight f4 [20, 6]
000000 77 d6 15 3d ef a9 8e 3e 74 24 88 be 63 c6 87 be
       0.036581483 0.27864024 -0.26590312 -0.26518545
000010 e5 c7 08 be 2b 28 4a 3e 79 e4 5f 3d ff 9f d5 3e
       -0.13357504 0.19741885 0.054661248 0.4172363
000020 c9 f9 97 3d 85 57 33 3e 3a 53 c4 bd 94 5f 3d 3d
       0.074206896 0.17513855 -0.09586187 0.04623373
000030 43 80 c7 be 64 18 8a be 46 38 2b be 07 b9 7d 3c
       -0.38965043 -0.26971734 -0.16720685 0.0154860085
000040 77 4d 28 3e 0e 43 7e 3e 23 26 5c be 6e 93 b0 bd
       0.164358 0.24830267 -0.21498923 -0.0862187
000050 e1 4a 83 3e 2f 4d cf 3e 87 35 5f bd 43 ed dc 3e
       0.25643066 0.40488574 -0.054494407 0.43149766
000060 a4 c3 86 bd d8 f0 30 3d f6 43 bd 3e 92 e7 c1 be
       -0.06580284 0.043198436 0.36965913 -0.37871987
000070 86 96 83 be 68 ab d3 bd 54 f4 22 be 9e 98 b4 3e
       -0.25700778 -0.103354275 -0.15913516 0.35272688
000080 0b 7c 87 be c0 70 40 be 32 08 92 be 4e c3 c3 be
       -0.26461825 -0.1879301 -0.28521878 -0.38234943
000090 2d b9 35 be 2f 09 e4 3e b1 32 96 3e 6b a4 87 3e
       -0.1774642 0.44538257 0.2933555 0.26492628
0000a0 bf 60 32 3d 20 f2 b7 bd 71 e1 8c 3d ca 3f c3 be
       0.043549296 -0.089817286 0.06878937 -0.38134605
0000b0 b6 27 97 be 79 c1 57 be fe 7d 83 3e fc 2b 74 3e
       -0.29522485 -0.21069898 0.25682062 0.23844904
0000c0 c5 84 0d be 47 3a 48 3d 90 2f ac 3e c1 3e e7 3e
       -0.13820179 0.048883703 0.33630037 0.45165065
0000d0 3f 0c 3b 3e 05 3f 12 3e ac 25 8c 3e 89 25 76 be
       0.1826639 0.14281853 0.2737249 -0.24037756
0000e0 04 cd 9b 3d 8a 0e a2 be fc de 90 be b1 f4 57 be
       0.07607463 -0.31651717 -0.28295124 -0.21089436
0000f0 cd 70 31 3e ac 65 1c 3e e1 e8 81 be b8 70 e5 3d
       0.17328186 0.1527316 -0.25372985 0.1120314
000100 32 d5 52 3e e6 b8 9d bd e9 4a 00 bb 22 a2 8b 3d
       0.2058914 -0.07701282 -0.00195759 0.06818034
000110 10 60 63 3e 9a c5 be 3e 5b 17 a2 be e2 c8 39 be
       0.22204614 0.37260133 -0.31658444 -0.18143037
000120 34 d5 20 3e 01 85 aa 3e 63 ca b2 3e c2 57 b6 3e
       0.1570633 0.333046 0.34920034 0.3561383
000130 d5 b7 a5 3d ba 9e b8 be 18 d4 19 3d 18 c4 82 be
       0.08091704 -0.360586 0.037555784 -0.25540233
000140 cb cc c2 be 2a b7 b9 3e ca ee 9e 3e a5 81 d0 be
       -0.3804687 0.36272556 0.31041557 -0.4072391
000150 05 91 06 3e 00 a3 50 3c d8 71 f2 3c d2 54 09 be
       0.13141258 0.012734175 0.0295953 -0.13411263
000160 93 67 44 3e ac 85 fa bd 0a 46 f4 3d b6 c6 23 3e
       0.19180135 -0.12232527 0.119274214 0.15993771
000170 7a bc 72 3e 5d f6 f1 3d a0 04 cf be 41 db a1 be
       0.2370471 0.11814568 -0.40433216 -0.3161259
000180 b7 0c 87 3e 32 b5 31 3e 9d 47 5b be 63 c5 32 be
       0.26376888 0.17354277 -0.21414037 -0.1745811
000190 e7 b5 d4 3e d2 f5 cc 3e 58 47 36 be 88 6e d2 bd
       0.4154503 0.40031296 -0.17800653 -0.102749884
0001a0 73 1d c7 be c0 72 f0 bb 20 68 9d be 3d 3b a1 be
       -0.38889655 -0.007337898 -0.30743504 -0.31490508
0001b0 4d d7 40 bc 33 ed 9d 3d bb f1 17 be 24 b7 81 3e
       -0.011770082 0.07711258 -0.14838307 0.25335038
0001c0 89 8e 78 be 9f 3a c9 3e b4 42 9a 3e 27 f2 9f be
       -0.24273123 0.39302537 0.30129015 -0.31239435
0001d0 4a 0b 83 bd d7 80 29 3d 6c e2 8e 3d 3b f1 0f 3e
       -0.063986376 0.041382637 0.0697678 0.14056866

bias f4 [20]
000000 d2 35 87 3e 11 8d 33 3e 2e 2f 48 be b6 da af 3e
       0.2640825 0.17534281 -0.19549248 0.3434655
000010 55 81 c8 be 60 c7 77 be ff 92 29 3d e9 a5 4c be
       -0.39161173 -0.2419715 0.041399952 -0.19985165
000020 b0 d6 1c bd e4 51 ab be 22 0a f1 bd d6 d4 49 3d
       -0.03829068 -0.33460915 -0.11769511 0.04927524
000030 5b a2 8b be 80 a1 ab bc 17 c4 de 3e 33 c5 d4 bd
       -0.27272305 -0.020951033 0.4350898 -0.10389175
000040 89 d3 23 3e f0 41 10 bd a5 4b e0 3d 5e a1 9f 3e
       0.15998663 -0.035219133 0.10951928 0.311778

weight f4 [3, 20]
000000 0e cf 8b 3e ec 5a a4 3e 1f b7 59 3e d6 35 a2 3e
       0.27306408 0.32100618 0.21261261 0.316817
000010 13 b1 4d be 24 1a d9 bd fc 7a 93 3e 39 97 2f 3a
       -0.2008708 -0.10600689 0.28804767 0.0006698254
000020 64 74 8c 3d 09 77 2f be 41 bc 52 be d7 90 40 bd
       0.06858137 -0.17135252 -0.20579626 -0.04701313
000030 7f 1c 36 3d 08 24 fb 3d ec be 4e 3e 25 99 1c be
       0.04446077 0.12262732 0.20190018 -0.15292795
000040 9d a7 98 3e 7f 2c 33 be de 13 11 3e 3f ff 22 3d
       0.2981538 -0.17497443 0.14167735 0.039794203
000050 4d 28 9b bd 89 f4 10 be d4 a4 4d be ca 42 c0 be
       -0.07576046 -0.14155783 -0.20082408 -0.37550956
000060 8c 51 0f bd 00 83 3d 3b a4 c8 33 be 74 21 aa 3d
       -0.03498988 0.0028917193 -0.17557007 0.08307162
000070 7d 7f 99 be 90 3e 77 bc 21 5c 47 3e c3 1b 2f be
       -0.29980078 -0.0150906 0.19468738 -0.17100434
000080 28 c3 1a 3e dc d8 a5 3d 03 b2 7a be c5 f4 d7 3d
       0.15113509 0.08098003 -0.24481969 0.10544733
000090 35 a5 e3 bd 38 6e cc bd 0a 3b 98 3d 29 f9 80 be
       -0.11115495 -0.0998196 0.07433136 -0.25190094
0000a0 fa b6 95 bb b1 3d 03 be 3b 5d 23 3e d3 7d b4 bd
       -0.0045689316 -0.12816502 0.15953533 -0.088130616
0000b0 bc 0b dc 3d 5c ba a1 3d cb b1 ec bd 87 8b 44 bd
       0.10744426 0.07896873 -0.11557349 -0.047984626
0000c0 72 e9 87 be c0 22 f8 3d d5 40 34 3e e8 88 ba 3d
       -0.26545292 0.12116003 0.17602856 0.09108144
0000d0 d3 7b 49 be 20 65 23 3c 05 4f 48 be 62 62 19 be
       -0.19676141 0.009972841 -0.19561394 -0.14978936
0000e0 df 80 50 be 44 80 9c 3d ea f2 5e be 9c 58 83 bd
       -0.2036166 0.07641652 -0.21772352 -0.06413385

bias f4 [3]
000000 c9 6f 09 3f 2c 20 17 be 78 3c cf be
       0.53686196 -0.14758366 -0.40475821
