system/models/maternal_practical_noniid_unbalanced/MOON_server.pt (torch, 4151 bytes, 4 tensors)

weight f4 [20, 6]
0.042178668 0.28536904 -0.25842303 -0.25962093 -0.12988561 0.20713231 0.059317503 0.42224166
0.07919104 0.178342 -0.09211064 0.054136094 -0.38967 -0.26973596 -0.16732788 0.015426319
0.16425581 0.24817283 -0.20981227 -0.08009456 0.26283795 0.40886006 -0.05058482 0.44085512
-0.06580284 0.043198436 0.36965913 -0.37871987 -0.25700778 -0.103354275 -0.15913516 0.35272688
-0.26461825 -0.1879301 -0.28521878 -0.38234943 -0.17315204 0.44907257 0.29680386 0.26742607
0.04722038 -0.08290076 0.06883182 -0.3813372 -0.29519695 -0.21066147 0.2568833 0.23855321
-0.13494496 0.0526017 0.34007514 0.45402566 0.18526588 0.14859661 0.2737249 -0.24037756
0.07607463 -0.31651717 -0.28295124 -0.21089436 0.17250793 0.1514452 -0.25464028 0.11168279
0.2049565 -0.07831442 -0.0029819824 0.067969054 0.22213578 0.37220588 -0.31666717 -0.18188924
0.15694554 0.33322823 0.3495949 0.356267 0.08081618 -0.36042657 0.037555784 -0.25540233
-0.3804687 0.36272556 0.31041557 -0.4072391 0.13755265 0.020789748 0.038246334 -0.12880284
0.19649677 -0.11087023 0.11755672 0.1594378 0.23691425 0.1174809 -0.40440917 -0.3171159
0.27106193 0.1825968 -0.20440273 -0.16813092 0.4203657 0.41351545 -0.17800653 -0.102749884
-0.38889655 -0.007337898 -0.30743504 -0.31490508 -0.010130877 0.07947472 -0.14561357 0.254982
-0.24176106 0.3964712 0.30408582 -0.30880237 -0.060033664 0.04380928 0.071611546 0.14584547
00000000: 8ac3 2c3d e41b 923e 0650 84be 09ed 84be
00000010: bc00 05be 7e1a 543e e9f6 723d 0f30 d83e
00000020: e92e a23d 499f 363e 81a4 bcbd cfbd 5d3d
00000030: d482 c7be d51a 8abe 0058 2bbe acbe 7c3c
00000040: ad32 283e 0521 7e3e 07d9 56be 9e08 a4bd
00000050: b292 863e 1b56 d13e 0732 4fbd c3b7 e13e
00000060: a4c3 86bd d8f0 303d f643 bd3e 92e7 c1be
00000070: 8696 83be 68ab d3bd 54f4 22be 9e98 b43e
00000080: 0b7c 87be c070 40be 3208 92be 4ec3 c3be
00000090: c54e 31be d7ec e53e adf6 973e 12ec 883e
000000a0: 286a 413d e0c7 a9bd b2f7 8c3d a13e c3be
000000b0: 0e24 97be a4b7 57be 3586 833e 4b47 743e
000000c0: 032f 0abe e174 573d 541e ae3e 0d76 e83e
000000d0: 57b6 3d3e b629 183e ac25 8c3e 8925 76be
000000e0: 04cd 9b3d 8a0e a2be fcde 90be b1f4 57be
000000f0: eba5 303e 7314 1b3e 3660 82be f2b9 e43d
00000100: 1ee0 513e 5063 a0bd 5d6d 43bb 5c33 8b3d
00000110: 9077 633e c591 be3e 3322 a2be 2c41 3abe
00000120: 55b6 203e e49c aa3e 1afe b23e a168 b63e
00000130: f482 a53d d589 b8be 18d4 193d 18c4 82be
00000140: cbcc c2be 2ab7 b93e caee 9e3e a581 d0be
00000150: 9ada 0c3e 434f aa3c 30a8 1c3d e4e4 03be
00000160: 7336 493e ee0f e3bd 94c1 f03d aa43 233e
00000170: a699 723e d399 f03d b80e cfbe 045d a2be
00000180: a1c8 8a3e a8fa 3a3e f34e 51be 832a 2cbe
00000190: 2c3a d73e 4cb8 d33e 5847 36be 886e d2bd
000001a0: 731d c7be c072 f0bb 2068 9dbe 3d3b a1be
000001b0: fafb 25bc a4c3 a23d b91b 15be 008d 823e
000001c0: 3690 77be 46fe ca3e 23b1 9b3e 581b 9ebe
000001d0: dce5 75bd 5c71 333d 13a9 923d 8458 153e

bias f4 [20]
0.2759495 0.18472053 -0.19562 0.35465583 -0.39161173 -0.2419715 0.049341206 -0.19976078
-0.031375375 -0.33460915 -0.119639955 0.048926584 -0.27247238 -0.020951033 0.44909558 -0.10475144
0.17586884 -0.035219133 0.1136412 0.3180817
00000000: 4149 8d3e 6127 3d3e 9c50 48be 7395 b53e
00000010: 5581 c8be 60c7 77be 011a 4a3d 178e 4cbe
00000020: 7783 00bd e451 abbe cb05 f5bd 3e67 483d
00000030: 8081 8bbe 80a1 abbc dbef e53e ec87 d6bd
00000040: f616 343e f041 10bd b8bc e83d 9bdb a23e

weight f4 [3, 20]
0.28355506 0.33188275 0.21264093 0.33368564 -0.2008708 -0.10600689 0.29379642 0.00050933106
0.077460505 -0.17135252 -0.2058024 -0.04585068 0.04548158 0.12262732 0.21647103 -0.15313625
0.32051334 -0.17497443 0.14969474 0.051478773 -0.08114731 -0.14699246 -0.20084119 -0.3838945
-0.03498988 0.0028917193 -0.17826036 0.083166994 -0.3041856 -0.0150906 0.19468558 -0.17143297
0.15068783 0.08098003 -0.25237095 0.10560877 -0.12285511 -0.0998196 0.0703241 -0.25798935
-0.00967289 -0.1336068 0.15952264 -0.09661508 0.10744426 0.07896873 -0.1186317 -0.04791906
-0.26994738 0.12116003 0.17603669 0.09034755 -0.19733508 0.009972841 -0.20263386 -0.14974299
-0.21427658 0.07641652 -0.22173409 -0.06972949
00000000: 212e 913e 89ec a93e 8bbe 593e d8d8 aa3e
00000010: 13b1 4dbe 241a d9bd 7c6c 963e a184 053a
00000020: 9da3 9e3d 0977 2fbe ddbd 52be eccd 3bbd
00000030: e54a 3a3d 0824 fb3d 95aa 5d3e c0cf 1cbe
00000040: 531a a43e 7f2c 33be 9449 193e 68db 523d
00000050: 9030 a6bd 3185 16be 50a9 4dbe d28d c4be
00000060: 8c51 0fbd 0083 3d3b e289 36be 7553 aa3d
00000070: 37be 9bbe 903e 77bc a85b 473e 208c 2fbe
00000080: e94d 1a3e dcd8 a53d c436 81be 6949 d83d
00000090: 769b fbbd 386e ccbd 1506 903d 2e17 84be
000000a0: 0b7b 1ebc 39d0 08be e759 233e 21de c5bd
000000b0: bc0b dc3d 5cba a13d 2df5 f2bd c746 44bd
000000c0: 8b36 8abe c022 f83d f642 343e 2308 b93d
000000d0: 3512 4abe 2065 233c 407f 4fbe 3a56 19be
000000e0: 526b 5bbe 4480 9c3d 430e 63be 56ce 8ebd

bias f4 [3]
0.5599752 -0.15938097 -0.41607404
00000000: 895a 0f3f c434 23be a807 d5be
