system/models/body_practical_noniid_unbalanced/MOON_server.pt (torch, 4151 bytes, 4 tensors)

weight f4 [20, 11]
000000 85 53 d9 bc 84 16 46 3e ba d5 7c be e7 31 83 be
       -0.026529083 0.19344527 -0.24690905 -0.2562401
000010 f2 f4 0d be da ed 97 3d 40 0c 07 bd 71 d1 60 3e
       -0.1386297 0.074184135 -0.032970667 0.21954896
000020 ea 51 05 3c e0 65 0c 3e 89 8c a9 bd c4 3d 1e 3e
       0.008137206 0.13710737 -0.08278758 0.15453249
000030 36 66 9c be bb ec 50 be fa 37 3a be 9b 41 1d bc
       -0.3054673 -0.20402806 -0.18185416 -0.009598161
000040 ec 47 39 3d 87 f5 e6 3d 69 63 6a be 75 70 40 3c
       0.045234606 0.112772994 -0.22889484 0.011745562
000050 b9 62 3c 3e da fa 93 3e f8 4e c0 bd fd 32 78 3e
       0.18397035 0.28902322 -0.09390062 0.242382
000060 61 fc cc bc 4f 30 d2 bc 33 5c 25 3e 39 8a a3 be
       -0.025022687 -0.025657801 0.16148452 -0.31941393
000070 e4 08 74 be 0e 96 76 bd ac 85 56 3d 59 8d ce 3e
       -0.23831517 -0.060201697 0.052373573 0.40342215
000080 67 fe ae bd 2f 1b 28 be 5c 05 5e be fc f9 8e be
       -0.08544617 -0.1641662 -0.21681732 -0.27925098
000090 bb dd 29 be 1f cd 8a 3e 33 d4 f0 3d 8d dd 17 3e
       -0.1658849 0.2710962 0.11759224 0.14830609
0000a0 bd 7a 09 3c 81 05 4d be 7c 00 16 3c 26 0a 93 be
       0.0083910795 -0.20021631 0.009155389 -0.2871868
0000b0 02 ff 25 be 9e 64 1c be 22 09 20 3e 6f bc e7 3d
       -0.16210559 -0.15272757 0.15628484 0.11315238
0000c0 73 d0 2b be 8e 4c 53 bd ee 34 2c 3e 7c 28 9a 3e
       -0.16778736 -0.05158668 0.16817066 0.30109012
0000d0 cb 63 5f 3e 82 61 92 3d a8 46 6d 3e d0 f3 19 be
       0.21815412 0.071475044 0.23171484 -0.15034413
0000e0 a3 57 f0 3d 85 c4 48 be c1 b3 5e be 91 f7 1e be
       0.117354654 -0.19606216 -0.21748258 -0.15524127
0000f0 5f 6b 2d 3d ac ce df 3c 1b 1c 53 be e8 98 3c 3e
       0.042338725 0.027320229 -0.2061619 0.18417704
000100 ba 9d 93 3e 5d ab 8d bc a6 92 e5 3c 5b d2 67 3d
       0.28831273 -0.017293626 0.028024029 0.056597095
000110 c8 1a 2e 3e 25 17 7f 3e 54 5b 84 be 4d 89 0e be
       0.17002404 0.24911173 -0.25850928 -0.13919564
000120 74 5f e7 3d 6b cb 76 3e b0 90 99 3e b4 88 88 3e
       0.11297503 0.24101035 0.299932 0.26666796
000130 d2 c5 97 3d 81 73 6b be 75 c1 ea bb 46 dc 37 be
       0.07410778 -0.2299328 -0.007164175 -0.17955121
000140 ca c2 73 be 0b 19 9a 3e 91 d6 6b 3e 2e 9a 90 be
       -0.23804775 0.3009723 0.2303107 -0.2824263
000150 30 d3 92 3d b0 a0 f5 bd b6 75 d3 bd 36 b3 18 be
       0.07169187 -0.11993539 -0.10325186 -0.14912114
000160 af b4 1f 3e 61 81 58 be bd 5d ec 3d 90 92 0d 3e
       0.15596269 -0.21143104 0.11541317 0.1382544
000170 45 ad 45 3e 54 55 15 3e fc 93 97 be 7f 30 47 be
       0.19304378 0.14583331 -0.2960509 -0.19452094
000180 13 72 45 3e ad 80 e6 3d 0b 33 56 be 91 f5 3a be
       0.19281797 0.11255012 -0.20917909 -0.18257739
000190 88 06 9b 3e e2 c4 48 3e 8e 34 14 be 1e 45 c0 bd
       0.3027842 0.19606355 -0.14473173 -0.09388183
0001a0 2a c2 99 be 73 70 b8 bb 8b 31 6e be 65 20 29 be
       -0.30030948 -0.0056286394 -0.23261087 -0.16516264
0001b0 1b 50 bb 3c 15 52 89 3d a6 5a 21 be af bf 3f 3e
       0.022865346 0.06705109 -0.15757236 0.18725465
0001c0 0c 7d 2b be 6e 1a 5f 3e 63 b8 06 3e 4f 3d 99 be
       -0.1674692 0.21787426 0.13156275 -0.29929587
0001d0 d6 d6 f6 bd 9a af 71 3c fe 30 c2 3d f3 8d 16 3e
       -0.120526955 0.014751339 0.09482001 0.14702587
0001e0 07 6c 2d 3e 0a 50 af bd cd 16 0c be 3a 05 3a 3e
       0.1693574 -0.08560188 -0.13680573 0.18166056
0001f0 b6 f8 6b be fa fd 06 be 7a 89 24 bd 82 fd 03 be
       -0.23044094 -0.13182822 -0.04017017 -0.12889674
000200 c9 51 e7 bd b3 fd eb be 3b 8a 3d be 7b e9 63 bc
       -0.11294896 -0.46091995 -0.18509762 -0.013910647
000210 31 cc 4e be dc f6 35 3c d0 d4 4b 3e ad 2c 87 bd
       -0.2019508 0.011106219 0.199054 -0.06600318
000220 1f db a9 3c 65 d2 d1 bc 07 1f 6a 3d 37 11 26 3e
       0.020734368 -0.02561302 0.057158496 0.16217504
000230 dc cf 95 3e 8c 56 40 3e d3 00 89 3e e1 54 18 bd
       0.29260147 0.18783015 0.2675844 -0.03719032
000240 ce 0f 92 be be 05 09 be 72 eb 5d 3e 4e 87 f3 bb
       -0.28527683 -0.13381097 0.21671847 -0.007431901
000250 34 ab 0e be 5f 00 5d be c2 ab 8a be dc dc 8e be
       -0.13932496 -0.21582173 -0.27084166 -0.27902877
000260 4b 63 8e bd d2 73 27 3e 8f e0 d7 be 03 8b 83 be
       -0.069525324 0.16352776 -0.42163512 -0.25691995
000270 64 f1 88 3e ab 68 a5 bd 96 d6 94 3d 35 dd 8c bc
       0.26746666 -0.080766045 0.072674915 -0.017195323
000280 f6 b6 ee bc f6 03 c7 bd 56 d8 78 bf 53 03 2f bf
       -0.029139977 -0.09717552 -0.972051 -0.6836445
000290 db 1a 7e be 41 19 8e bd ed b2 f4 bd f0 de bc 3d
       -0.24814932 -0.069384106 -0.1194819 0.092222095
0002a0 ad c8 95 be 00 38 fd bc b0 08 80 3e 99 39 07 be
       -0.29254666 -0.030910492 0.25006628 -0.13205566
0002b0 b6 3c 69 3e 2e 37 7c 3c 67 a8 c4 be c7 94 21 3e
       0.22777066 0.015394015 -0.3840973 0.1577941
0002c0 ae 43 a2 3e c9 f9 8a be 44 56 75 3e 38 45 8e be
       0.3169226 -0.27143696 0.23958689 -0.27787185
0002d0 1f 0c 53 3d 84 ea 49 be c1 17 40 3e 5e eb 6a 3d
       0.05152523 -0.19718367 0.18759061 0.05735337
0002e0 00 7b a8 3e 47 c7 23 3e 51 7a 86 3d cc 33 c1 be
       0.32906342 0.15993987 0.06566299 -0.3773483
0002f0 82 4b 47 be 7c 40 3d 3e 85 ad 71 3e dd a0 8b 3e
       -0.19462398 0.1848163 0.23601349 0.27271166
000300 58 ad 0d be 1b 16 66 3c fa 45 8d be 51 3b 43 bf
       -0.13835657 0.014043356 -0.2759245 -0.76262385
000310 2b 78 08 bf 0d e8 cd bd 07 c0 37 be 55 4e 73 bc
       -0.5330836 -0.10054026 -0.17944346 -0.014850219
000320 46 ec 42 3c 59 3f 4c 3e 64 76 6c be 0c c7 69 be
       0.011897152 0.1994604 -0.23092037 -0.22829837
000330 64 5f 3f be 93 a2 5d 3e 3c b0 de bd 1e 6b 83 3e
       -0.18688732 0.21644048 -0.10873458 0.2566766
000340 ca 5a ee 3d d2 64 5a 3d 50 7c 98 bc e7 28 33 bd
       0.116384104 0.053318806 -0.018613964 -0.04374018
000350 ac 6c 62 3d 90 7a 88 bd c6 e6 9b 3a d8 e4 48 3d
       0.05527942 -0.06664002 0.0011894337 0.049046367
000360 88 46 6c be 91 a6 29 be fd 93 74 3e 69 70 74 be
       -0.2307378 -0.16567446 0.23884578 -0.23871006

bias f4 [20]
000000 88 ab ca 3a 7c 13 cd 3e 11 6f 10 3e 7b c5 65 3b
       0.0015462497 0.40053928 0.14104868 0.0035060334
000010 2c c4 86 be 77 9c 74 3e 2e f8 5c be 7c e3 cc bd
       -0.26321542 0.23887812 -0.21579048 -0.10004327
000020 3a c1 9a bd 61 39 0d bd ed 1c 0a 3c 08 d0 5c 3e
       -0.07556386 -0.03447855 0.008429748 0.21563733
000030 5d ae da 3c 15 1d 8c 3e 10 a4 36 3e 25 de 4e be
       0.026694471 0.27365938 0.17836022 -0.20201929
000040 b1 0e e2 3e 60 32 fe bc b0 11 f2 bd 70 d1 ba 3d
       0.44151834 -0.03102988 -0.1181978 0.09121978

weight f4 [4, 20]
000000 9e ef 2e 3e 67 16 4c 3e 41 61 8a 3c 6c fc 3a 3d
       0.17083594 0.19930421 0.016892077 0.045650885
000010 0d 91 0d 3e 38 76 a6 bd 4d 85 3e 3e 82 c3 c9 bd
       0.13824864 -0.08128017 0.18605538 -0.09851743
000020 2a 00 a0 3c 4e e4 98 3c ca df c1 bd 00 93 3c 3d
       0.019531328 0.018663552 -0.094665125 0.046038628
000030 88 91 58 3e 20 27 94 bd 6f 08 12 be c2 79 5c bd
       0.21149266 -0.07234025 -0.1426103 -0.053827055
000040 02 9d 48 be e3 62 e5 3d 5e 04 d8 bd f8 15 ca bd
       -0.19591144 0.11200502 -0.10547708 -0.098674715
000050 03 c4 09 be 68 c3 8b 3e c0 4c f7 3d 4d 17 09 be
       -0.13453679 0.2729752 0.12075186 -0.13387795
000060 fd 9d b1 3d b1 84 d1 3c 56 ab 12 3c 55 34 16 be
       0.08672712 0.025575968 0.0089519825 -0.146684
000070 02 2b 4d 3e 59 3b b6 3b dc 24 b1 bd b4 0c ce be
       0.20035937 0.005561274 -0.086496085 -0.40244067
000080 2d bd 96 bd 2c 88 1b be cd 6c 7f bf 3f 55 8a be
       -0.07360301 -0.15188664 -0.9977539 -0.27018163
000090 f6 12 01 3f 8a 8e 5b bf ec eb 65 bd d4 2a 3b bd
       0.5041956 -0.8576437 -0.056133196 -0.04569514
0000a0 e5 6d ba 3d e1 c4 94 bd c3 80 cd bd f8 0d 86 3e
       0.09102992 -0.07264114 -0.10034325 0.26182532
0000b0 38 87 ea 3d a6 58 87 3e 53 88 85 3b f6 8f 17 3e
       0.11451572 0.2643482 0.004075089 0.1480101
0000c0 8c b4 0d 3d 95 c5 95 3d 36 99 56 bd 67 f6 1e 3e
       0.03459601 0.073130764 -0.052392207 0.15523683
0000d0 68 36 17 3e 33 30 9b 3d 41 e6 ff 3c 97 be 54 bd
       0.14766848 0.07577553 0.031237723 -0.051939573
0000e0 fe b3 6f 3e 15 bf a3 bd 40 b7 2e 3e 1b 00 14 3c
       0.23408505 -0.079954304 0.17062092 0.009033228
0000f0 d7 ee 90 be d3 bf 5a be a7 54 93 be 15 98 69 3e
       -0.2830722 -0.21362238 -0.28775522 0.22811921
000100 24 ed 80 bd d2 cb f5 be 59 f3 0c be 25 cc 0e 3e
       -0.06295231 -0.48007065 -0.13764705 0.13945062
000110 4a 96 f7 bc 63 bd e6 bd 5e 75 9e be f5 c3 2a 3e
       -0.03022303 -0.112665914 -0.3094892 0.16676314
000120 8f a4 27 be 7f 21 39 3d e1 ae 62 3f 01 fd d6 3d
       -0.16371368 0.04519796 0.88548094 0.104974754
000130 d7 b0 07 bf 22 f8 1d 3f e7 f8 2c 3d ed 28 f5 bb
       -0.5300421 0.61706746 0.04222956 -0.0074816854

bias f4 [4]
000000 6f cf 8a 3b 0b de bb 3d ee 49 4f be 86 00 a9 bb
       0.004236154 0.09173211 -0.20243046 -0.005157533
