system/models/diabetes_iid_unbalanced/MOON_server.pt (torch, 2295 bytes, 2 tensors)

weight f4 [2, 13]
0	0xbfae05bc	-1.35955
1	0xbebafdd4	-0.3652178
2	0xbe6d06a2	-0.23147061
3	0x3f1d0d7e	0.6134871
4	0xc03f27fb	-2.9868152
5	0xc0247e73	-2.5702178
6	0xbe57088e	-0.20999357
7	0x40499efa	3.1503282
8	0x3ec3f4a8	0.38272595
9	0x3f812eb6	1.009238
10	0x3e915f75	0.2839314
11	0x3e6bd9e2	0.23032334
12	0x3f20c6fd	0.6280363
13	0x3f963e1c	1.1737704
14	0x3ecca1ee	0.39967293
15	0x3c5c762a	0.013455907
16	0xbf353d23	-0.7079641
17	0x4042f88f	3.0464208
18	0x401d3872	2.4565701
19	0x3dab71ec	0.08371338
20	0xc0351996	-2.8296866
21	0xbe3543ec	-0.17701691
22	0xbf7e30e4	-0.9929335
23	0xbe240a84	-0.16019636
24	0xbea8bab2	-0.32954937
25	0xbf5d19d7	-0.86367553

bias f4 [2]
0	0x3f12dd76	0.5736917
1	0xbf147115	-0.5798505
