system/models/body_patho_noniid_unbalanced/FedAvg_server.pt (torch, 4163 bytes, 4 tensors)

weight f4 [20, 11]
00000000: ae49 e8bd 4609 f13e be62 3dbe 4138 a2be
00000010: 7a48 edbe ce81 2ebd dcd0 86be 4a9b a73e
00000020: 7710 a63d 26d7 b83e 438c 953d 2a5b bdbd
00000030: abbc a2be 2e38 2ebe 1e0d e3bd d6c7 e63b
00000040: 4cb8 283e eb6b 113e 0c99 5fbe b498 09be
00000050: 5e15 b73d 901c 713e bc91 b9bc 8e5c b03e
00000060: acfa d63d d5bb 383d 20c0 553e 74d7 b6be
00000070: 905b 5fbe ceab 4b3d ceb8 38be f0fe 923e
00000080: ae33 b7be f23d 04be 0fd0 61be 2872 a4be
00000090: 2e05 4fbe 66c9 4b3e 8e76 473e 275c 013d
000000a0: 0348 993d 71bf 79be adc9 1abe e477 49be
000000b0: 8fd3 82be 8aa2 fbbd 2c57 503e fefc 423e
000000c0: 88ed 37be a86d 2a3c 63ec 1f3e 0638 c73e
000000d0: 0e5f 3c3e ccc5 a53d 34af 1b3e 1ca6 0cbe
000000e0: 6800 033e 98c9 7ebe f807 66be 7137 94be
000000f0: ea1a 973e 0ec9 d03e 52f0 8bbd 1cab 49bd
00000100: efcb 6c3e 739b 78bd 51eb aa3e 2f8e 0e3e
00000110: c8a4 6d3e e471 c13e 8603 b0bd d0bd 9dbe
00000120: d865 9b3e 53e2 f63d 6bb9 303e 1dcc db3e
00000130: 203f 2d3e ba37 8cbe 1a53 39bd 171c 55be
00000140: 8b19 71be e1e7 843e de06 3d3e a4a2 8cbe
00000150: 52d6 373d b27e 27be 485e d2bd 61aa babd
00000160: 1ac0 d13d 790c 53be f5ef 803d 290e 313e
00000170: 03d8 ef3d 6d4e e33d 5259 5bbe b5ca 6fbe
00000180: ecd3 a73e ce08 7b3d b4af 38be 5c80 31be
00000190: 9a38 8b3e f494 8e3e aa67 10be eef5 fdbd
000001a0: 2c8a 83be cbe8 c23d a832 c8be d837 a2be
000001b0: 8275 aebd e0ef 573d a6ca bebd d79a 913e
000001c0: 40aa 22be cd5e 683e fab3 423e 163f 7fbe
000001d0: 2eb1 ecbd a565 a43c 5c8d 3e3d 1228 cf3d
000001e0: e85c 243d 4e93 623d 626c f7bd d58a b83d
000001f0: d559 aebe 979e 08be 661d bb3c 4a29 4d3c
00000200: 0a99 3abe 149e afbe 9ec4 1dbe 7f0f 0e3d
00000210: 8d1e dd3e f33a 043f 5a12 a23e 59e7 a6be
00000220: d273 033e b3a2 23be 10f6 343e 8901 8f3e
00000230: 60d4 1e3e d4d1 183f 6c55 c93e e8ff 0fbf
00000240: 704c bdbe 427d abbe 0e89 a73e da14 1b3e
00000250: 8ef5 42be c7ff a3bd 0ae6 0cbf 1125 61bf
00000260: 19ee 9f3d 44bd 2e3e b68d 9ebd 4455 14be
00000270: 483e 213e 9f19 b8be 086c 09be 5a96 0fbe
00000280: ca6f 593d 67d5 0ebe b19f 39bf dc0c e1be
00000290: 8892 18bd e079 893c 9017 f8bd 79bc d33d
000002a0: 268c 94be 547d e4bc 4861 8a3e 0e22 cfbd
000002b0: b5c6 833e 1acb fc3d 86b4 83be 4587 443e
000002c0: ec45 bdbe a0e1 9abe 5e7d 8d3e 126e 64be
000002d0: 6af9 b3bd 3ad9 863e 4800 163e 66fd b73e
000002e0: c6c6 00be 1142 753d 7eae 69be 9e20 03be
000002f0: dc0c 6bbe 37a9 e13d 981d 6a3e 25dc a43e
00000300: 4a53 263b d3bb f13d f876 57be 74ff 5abe
00000310: 680d 08be 5372 0b3e 6815 5bbe a667 92bd
00000320: fa99 5e3d a338 253e f950 84be 89f2 84be
00000330: 6ec9 27be 50d5 4e3e 2a6c a5bd 8e60 c93e
00000340: 2e2c b6bd 74eb e7bd a6d7 bc3d 02d9 5d3d
00000350: 688b 3d3c 849e 6dbd bead 2fbe 606a fe3d
00000360: 9a13 afbe 1dc7 20bf f552 b23e 9e45 5dbe
-0.11342178 0.47077388 -0.18494698 -0.31683543 -0.46344358 -0.04260426 -0.26331222 0.32735664
0.08108609 0.36101645 0.073021434 -0.09245904 -0.31784567 -0.17013618 -0.11086486 0.0070428653
0.16476554 0.14201324 -0.21835726 -0.13437158 0.08939622 0.23546052 -0.0226525 0.34445614
0.104970306 0.045101006 0.20874071 -0.35711253 -0.21812272 0.049724393 -0.18039247 0.28710127
-0.35781616 -0.12914255 -0.22052024 -0.32118344 -0.2021682 0.19901046 0.19478819 0.031582024
0.07484438 -0.24389435 -0.15115996 -0.19674641 -0.2555203 -0.12286861 0.20345753 0.19041821
-0.17961705 0.010402121 0.15617518 0.3890993 0.18395635 0.080943674 0.15203553 -0.1373524
0.12793124 -0.2488159 -0.22463977 -0.28948548 0.2951272 0.40778393 -0.06832947 -0.04923545
0.2312467 -0.060695123 0.33382657 0.13921426 0.2320739 0.37782204 -0.08594422 -0.30808878
0.30351138 0.12054887 0.17258231 0.42929164 0.16918612 -0.27386266 -0.045245267 -0.20811497
-0.235449 0.2595816 0.18459651 -0.27467835 0.044882126 -0.16356924 -0.10271889 -0.091145284
0.102417186 -0.20610227 0.06295768 0.17290558 0.11711123 0.11098943 -0.21420792 -0.2341717
0.3277887 0.061287694 -0.18035775 -0.17334121 0.2719162 0.27848017 -0.14102045 -0.12400423
-0.25691354 0.09517058 -0.39101148 -0.3168323 -0.085185066 0.052718997 -0.09315996 0.28438446
-0.15885258 0.22692414 0.19013968 -0.24926409 -0.11557232 0.020068 0.04652153 0.10115065
0.040127665 0.055316262 -0.12081219 0.09010855 -0.3405291 -0.13341747 0.022841167 0.012522051
-0.18222442 -0.34300292 -0.15407035 0.034682747 0.4318737 0.5165245 0.31654626 -0.3259838
0.1283715 -0.15980034 0.1767199 0.2793086 0.15510702 0.5969517 0.39322984 -0.56249857
-0.3697238 -0.33494002 0.32721752 0.15144673 -0.19038984 -0.0800777 -0.5503851 -0.87947184
0.078090854 0.17064387 -0.07741873 -0.14485651 0.15746415 -0.35957047 -0.13420117 -0.14022198
0.053085126 -0.13948594 -0.72509295 -0.43955123 -0.037249118 0.016781747 -0.12113869 0.10338683
-0.29013175 -0.027891792 0.27027345 -0.10113917 0.2573754 0.12343426 -0.25723666 0.19192226
-0.3696741 -0.30250263 0.2763471 -0.22307613 -0.08787806 0.26337606 0.14648545 0.35935515
-0.12575826 0.05987746 -0.2282047 -0.12805411 -0.22954124 0.11018603 0.22862852 0.32199207
0.0025379234 0.11803403 -0.21041477 -0.2138651 -0.13286364 0.1361783 -0.21394885 -0.071486756
0.054346062 0.16134886 -0.25843027 -0.2596629 -0.16385433 0.2019856 -0.08077271 0.39331478
-0.08895145 -0.11324206 0.09220819 0.054162033 0.011568882 -0.0580125 -0.17156121 0.12422633
-0.34194642 -0.6280382 0.34828916 -0.21608588

bias f4 [20]
00000000: 5054 6d3d a98a ad3e e649 a03e bb6f 073e
00000010: ff8e 71be 9074 3c3e a02a ccbd c0ff cabd
00000020: 2608 60bd 38e3 b53d ebc1 aa3d 7a7c 703e
00000030: c726 df3e 3261 1e3f aa1e e53e 07cd 59be
00000040: 9481 9f3d 1b88 9cbe d672 aabd c0f7 5a3e
0.057941735 0.33894852 0.3130638 0.13226216 -0.23589705 0.1840384 -0.099690676 -0.09912062
-0.05469527 0.08881229 0.08337768 0.23484984 0.43584272 0.6186706 0.44749957 -0.21269618
0.07788387 -0.3057259 -0.083226845 0.21383572

weight f4 [4, 20]
00000000: c7af 1d3f 642d ed3d 0835 c33e 7089 afbd
00000010: d2ca 0abe 964c 8a3e 75fe f33e ae0d 0ebe
00000020: 771c 89bd 9514 96be 72d7 8cbd 1683 6cbe
00000030: 5e48 4e3f 6ecc 6cbf d1dd 3abf 4cb2 55be
00000040: 530c fbbe d427 633e 2e39 a3be 33bc 15bf
00000050: ce13 51bf d5e2 1b3d de87 f5be 25ee d93d
00000060: 1aca 433e caa9 33bf bacb 04bf 6f7c 04be
00000070: 3649 c93d 8854 283e 3859 9cbe c5d8 0e3c
00000080: 98f3 76bf b466 423f 7a17 a43e d458 6abe
00000090: a4f3 a33e f09c d9be 0ce0 343d 6ad8 b03e
000000a0: ccb8 a83d 6a9b 9cbd 53d2 d8bd 8856 833e
000000b0: 26d0 e03d abfd 833e eb3e 96ba 0b68 123e
000000c0: d282 f33c ac39 8c3d 3fc2 6dbd 8865 1b3e
000000d0: 43f7 0e3e dfbe 943d 2e0a e93c 3a31 69bd
000000e0: 245f 6b3e faca abbd 786e 293e 2a1f 9d3b
000000f0: 7b14 19bd ee71 de3d 1e9b 3dbd 88f2 fe3d
00000100: fa86 e33d 42b8 c7bd 2092 d63d 6667 2b3e
00000110: 1c1c 273e 7b28 383d 12fd e2bd 2bd7 133d
00000120: 567a 103e d124 28bc e826 213e dbdf 643e
00000130: cb37 42bd 08e5 a03d 9342 243e ba32 bc3d
0.6159634 0.11580923 0.38126397 -0.08571136 -0.13553932 0.27011555 0.47655073 -0.13872406
-0.06694882 -0.29312578 -0.068770304 -0.2309688 0.80579174 -0.92499435 -0.72994715 -0.20868796
-0.4903284 0.22183162 -0.31879562 -0.58490294 -0.81670845 0.03805812 -0.4795522 0.106411256
0.19120064 -0.7018095 -0.5187336 -0.12938093 0.09828417 0.16438496 -0.30536819 0.008718674
-0.96465445 0.7593796 0.3204916 -0.22885448 0.3202182 -0.42502546 0.04415898 0.3454011
0.08238372 -0.076468304 -0.10586991 0.25651956 0.10977201 0.2577947 -0.0011462843 0.14297502
0.029725466 0.068469375 -0.058046576 0.1517545 0.1396151 0.07262968 0.028447237 -0.05693171
0.22985512 -0.08388324 0.16546047 0.004794975 -0.037373047 0.10861574 -0.04629051 0.12448603
0.11109729 -0.09751941 0.1047709 0.16738662 0.16319317 0.04496048 -0.110834256 0.036093872
0.14109167 -0.010262684 0.15737498 0.22351019 -0.04741649 0.07856184 0.16041021 0.09189363

bias f4 [4]
00000000: 4649 0f3d 1b36 743d 2e81 4dbe c601 b5bb
0.03498199 0.05962191 -0.2006881 -0.005523893
