system/models/har_patho_non_iid_unbalanced/FedBABU_server.pt (torch, 88713 bytes, 4 tensors)

weight f4 [32, 9, 1, 9]
00000000: 1271 683d a60c 6f3e 3a9e c8bd 943d 03be
00000010: 3b2d a1bb 3c32 54bc db1e a2bc a4f5 813d
00000020: 0e7f abbc 68f6 ecbb 7e83 ccbd a041 f33b
00000030: 7291 1cbe 60bb acbd 8ce4 54bd b017 f2bb
00000040: ec54 9e3d 6a9d 893e 982a 3cbd 5454 b6bd
00000050: 7664 db3c 7057 913d 1f56 64bd 426d 093e
00000060: 6e05 453e 36b7 f93a ca58 243c 1860 debd
00000070: 5cde e2bd df8c 0cbd ebad 463d f213 a33e
00000080: 1dbf a5bd ee56 e3bd 2e82 6dbd 683c 11be
00000090: 2087 e2bd 7afd 3b3e b048 7b3e a3cc 313d
000000a0: 4e89 38bd 348c e7bc b3e8 1fbd 4e4b cebd
000000b0: 56c4 eabd ae5b 2c3e 6180 013d c956 3fbc
000000c0: 9ed5 debc dfa7 6ebd 7092 883d b894 913d
000000d0: 8425 b03c 0db1 a73d 7414 67bb 19fe 2cbd
000000e0: a64e c0bc f126 bcbd 1862 b1bd 3cf1 abbd
000000f0: 4e8e d73d a6b9 823e 8c0b 93bd 32af 64bb
00000100: d278 403d febe 3cbd 2805 b83a 9a76 9c3d
00000110: 28b0 7d3e 06e0 dd3d dc08 0bbe fc8a bdbc
00000120: 29e7 fa3c 9e0b bd3d 888d 203e 19f3 873e
00000130: c570 4b3c 0243 0fbe 6c78 863c bac2 ecbd
00000140: 546c e7bd a853 4b3e b2d9 793d 18cf 1fbe
00000150: 7cb2 5a3c 5464 ffbc 5986 9bbc 3e47 cabd
00000160: 3cee d53c ecc2 88bc 9c99 91bc 8f5a 2a3d
00000170: fc99 633d 978e 0d3d b7ff 05be 00b7 c0bd
00000180: 2e1d bf3d dce1 073e f08f d7bd ea9c 82bd
00000190: 635a e13d 2399 2f3d 94b2 bcbd 931b a13c
000001a0: 9556 bc3c 6e75 cabc 469f 1abe 2213 acbd
000001b0: a83f 16bd eda1 8ebc 6ee1 733c 9ca9 583e
000001c0: 5b1f acbd 12bc 233d 43f4 843d 3ef7 d1bd
000001d0: d4c3 31bd 868d 923d 06a7 213e adf8 3a3c
000001e0: 993d 98bc 89f0 293c 406d 58bd b2f4 823d
000001f0: 054f 2fbe d600 cebd ca76 82bd dc73 ffbd
00000200: 3667 3fbd 4851 e8bd b5eb 9ebc e2da 4e3b
00000210: b410 c2bd 92f0 3d3d 63c8 513e 7e74 bfbc
00000220: 15e7 513b d9d8 1c3c 3e88 33bb bbd4 213d
00000230: 5c37 183e 58bf 503e 20b5 ae3d 3524 84bd
00000240: ef6c d0bd 9ef4 afbd 15ae 5b3d 0cd9 383d
00000250: 1875 663d 279c b4bd 9ad2 16be b3f2 bdbd
00000260: 0d40 1cbd 97a2 813d 509a d53d 8cca 46ba
00000270: 3cd9 673d 5c1f edbd 3d51 1abd 5e82 69bd
00000280: 9a53 1c3b b828 8cbd b248 a7bd 8eb9 f7bd
00000290: b4dd 2eb9 e60b bfbc 9261 a0bd 2647 113d
000002a0: 0a42 8ebd 5562 2a3d f76c 193e b38a 35bd
000002b0: 0834 a63d a258 263d 58d4 f3bd 60fe d73d
000002c0: e8de 773c 8233 273c 8782 f23d 7f27 f7bd
000002d0: 90d4 923c aaa3 50bd 57ee 013e c95a 923d
000002e0: a896 dd3d f77f 523d cf4b 67bd d74e 3fbc
000002f0: e877 03be 2e58 db3d 2ee6 023e 02a1 073e
00000300: c254 3abd 1e44 bebc 5a20 a8bd fe5f babd
00000310: a288 96bd cbcf 923c c4fd 63bc 5a5b ad3c
00000320: 9121 9dbc 6a30 9f3d 82ed acbd 7000 b2bd
00000330: 646f c3bd f0cb e83d 8971 2a3c 40ac 413d
00000340: a284 c83c 3131 8b3c 42af 6bbc 1328 0bbd
00000350: bd1b 7c3d eef3 e63b ad9a 503d 1533 213d
00000360: a402 d8bd 721b 86bd 8594 ad3d 3800 81bd
00000370: d6c5 103d d622 253e 8185 8b3d 723b c3bc
00000380: 998a c3bd 2ab2 743d c65b 60bd b8ef 1c3c
00000390: 6694 723a 96ff db3c 863c b2bc 9b58 ce3d
000003a0: d134 8cbc da2a 9e3d 51de f53d 3ba6 99bc
000003b0: 0e6f 973d ec0d d1bd 6026 19bd 26ac 0f3d
000003c0: 804f e93b b05d c03d 3426 e2bc ea5a 60bc
000003d0: 92f0 ab3c e7ec 1cbe c980 023e e930 a1bd
000003e0: 82cc f23d a8e9 fcb9 66c4 f83d 8f13 55bd
000003f0: afa8 933d ec19 373c ff64 61bd e688 813d
0.056748457 0.23344669 -0.09795804 -0.12816459 -0.004918722 -0.01295143 -0.019790104 0.0634568
-0.020934608 -0.0072315224 -0.09986018 0.0074235946 -0.15289858 -0.084341764 -0.05197577 -0.0073880777
0.07731041 0.2687791 -0.045939058 -0.08902803 0.026781302 0.070967555 -0.055746194 0.13420585
0.19240353 0.0019051793 0.010030935 -0.10858172 -0.11077568 -0.034314033 0.048505705 0.31851155
-0.080930926 -0.11100565 -0.057985477 -0.141832 -0.11060929 0.18358412 0.24539447 0.043408047
-0.04505282 -0.028265096 -0.03904028 -0.10072957 -0.11463229 0.16831848 0.031616572 -0.011678406
-0.02720147 -0.058265563 0.06668556 0.07108444 0.021502264 0.08188067 -0.0035259994 -0.042234514
-0.023475002 -0.09187115 -0.08661288 -0.08395621 0.10525189 0.25532264 -0.07179937 -0.0034894464
0.046990223 -0.04608058 0.0014039623 0.07639809 0.2477423 0.10833745 -0.13577598 -0.023137562
0.030627804 0.092307314 0.1567899 0.26552656 0.012417023 -0.13990405 0.016414843 -0.11560579
-0.11299959 0.19856131 0.060998626 -0.15606344 0.013348218 -0.03117577 -0.01898496 -0.098768696
0.026114576 -0.016694508 -0.017773442 0.04159027 0.055566773 0.034559812 -0.13085829 -0.094099045
0.093317375 0.13269752 -0.10525501 -0.06377585 0.11003568 0.042870652 -0.092137486 0.019666469
0.022990504 -0.024714198 -0.1509982 -0.08402087 -0.0366818 -0.017411197 0.01488529 0.21158451
-0.08404418 0.03997428 0.06491902 -0.10252236 -0.043399647 0.071559 0.1578637 0.011411828
-0.01858406 0.010372289 -0.052838564 0.06394328 -0.17119987 -0.10058753 -0.063703135 -0.1247327
-0.04672929 -0.11343628 -0.019399503 0.003156357 -0.09475842 0.046372004 0.20486598 -0.023370977
0.0032028605 0.009573185 -0.002739444 0.039509516 0.14864868 0.20385492 0.085306406 -0.064522184
-0.101770274 -0.08591579 0.053632814 0.045128867 0.056264013 -0.08818846 -0.14728776 -0.09274807
-0.03814702 0.0632984 0.104298234 -0.00075832824 0.056603655 -0.11578247 -0.03767513 -0.057009093
0.0023853541 -0.06843704 -0.081681624 -0.120959386 -0.00016676524 -0.023321103 -0.0783111 0.035468243
-0.0694619 0.041597683 0.14982973 -0.044321727 0.08115393 0.04061187 -0.11905736 0.10546565
0.015128829 0.0102051515 0.11841302 -0.1206808 0.017923623 -0.050937332 0.12688576 0.07146222
0.10819751 0.051391568 -0.05646878 -0.011676512 -0.1283871 0.10710178 0.12783119 0.13245013
-0.045490988 -0.02322584 -0.082092956 -0.0910034 -0.073502794 0.017921349 -0.013915483 0.021161724
-0.019181045 0.07772906 -0.084437385 -0.0869149 -0.095427305 0.11367023 0.010403045 0.04728341
0.024477307 0.01699123 -0.014385046 -0.033973765 0.06154989 0.0070481217 0.05092876 0.039355356
-0.10547379 -0.065482035 0.084755935 -0.0629887 0.03534492 0.1612657 0.06812573 -0.023832057
-0.0954792 0.059740223 -0.054775022 0.009578638 0.00092536805 0.026855271 -0.021757375 0.10075494
-0.017115029 0.07723017 0.12005294 -0.018756023 0.07394229 -0.102077335 -0.037390113 0.035076283
0.007120073 0.093928695 -0.027606107 -0.013693551 0.020988736 -0.15324746 0.1274444 -0.07870657
0.11855413 -0.00048239273 0.12146835 -0.052020606 0.07209908 0.011175614 -0.055027958 0.063249394

bias f4 [32]
00000000: 469c 153e b1e8 143e 8c09 1f3d 5c20 da3e
00000010: b224 373f 56a7 0e3f deca eb3e 0072 203e
00000020: 1071 193f 814b 213e d9ee 713e 607a 843e
00000030: 4c13 933e 241f 653e d452 0b3f 9eab 8b3e
00000040: ef28 933e 8653 f3bc a0ae 2a3e 008c a73e
00000050: 17e9 893e 50e7 913e 0a9e 3c3e d2c2 323d
00000060: 3263 643e 4870 d83c dfa3 343f a72b 023f
00000070: c7e0 5a3e d08c c33e 9f09 fc3e 60d0 803e
0.14610395 0.1454189 0.038827464 0.42602813 0.7154037 0.55724084 0.46053213 0.15668488
0.59938145 0.15751459 0.2362627 0.25874615 0.2872566 0.2237516 0.5442326 0.2727937
0.28742167 -0.029702913 0.16668177 0.32724 0.26935646 0.2849679 0.18419662 0.043642826
0.22303465 0.026420727 0.7056255 0.5084786 0.21374808 0.3819337 0.4922609 0.25158978

weight f4 [64, 32, 1, 9]
00000000: e8b4 d0bc 70d8 053c 497e b53d d31d 1cbd
00000010: 87f3 7abd f455 a7bc be54 203d 64eb 7cbc
00000020: 8c45 94bd 0c37 afbc 8e8b 98bc 344c 903d
00000030: 3561 96bc 71d5 ac3c 3b73 a4bb 5466 c7ba
00000040: b2d0 8d3b 3429 34bc a077 7abc 88d2 abbc
00000050: ee92 cf3c 64b4 913d a2d1 2c3c 7113 893b
00000060: e63c 323d 14ef c83c d4a4 103d 3859 813d
00000070: 6879 903c 78f2 68bd 32b9 813d 0821 643d
00000080: 8c55 b73b 5476 36bd d8b1 8e3d d98d ac3d
00000090: 784e 71bd acea de3d 7efd 063e a00a 9b3c
000000a0: 0655 173e 8076 ce3d 8b54 b9b8 8c69 c03d
000000b0: 9ae8 b73d d9fe 5339 764a 133d 285a 94bd
000000c0: 8cc7 ba3d 2895 36bb b2a4 acbd 875b 9b3d
000000d0: 1e5c c43d 3488 07bc 4851 78bd 6a5c 7c3d
000000e0: aa64 7abc 1ae8 aabd be52 663d 446e db3c
000000f0: 4bff d8bd 415d 823d 6a98 cbbc 545d 9d3c
00000100: 36ed 683d 07b9 5e3c 191b ae3d eaa1 cf3c
00000110: ee4f 8bbc e1a4 3d3d 3dc3 533d 4802 a13b
00000120: ecfc 393e 5a48 e93c bbad 923b bad7 c23d
00000130: c418 d83d 3257 2d3c 5893 df3d 3abc 17bd
00000140: 523c cbbd a484 a53b b61a f13a 3ff0 1d3d
00000150: 3ca6 773d 1fbb 593d 0097 d2bb 76b8 49bd
00000160: 789e 76bd e2a3 0f3d 9bd4 d2bd 3d99 9ebd
00000170: 44d8 383d 7ef3 42bd 2834 e2bb 80ef 8dbd
00000180: 771c e3bc 8576 ed3d 8454 2bbc cc4a 3e3d
00000190: 4424 e8bc 412c 86bc 7611 443d b2c6 25bc
000001a0: 9c83 0cbd 72f8 a7bc eaae 36bd d7a5 6ebb
000001b0: 30eb cd3d 46d1 c43b 8696 64bd b051 fd3a
000001c0: 9071 2ebd 5019 8dbd 1f1c 9e3d 143d 893d
000001d0: 20af d7bc ca13 02bc da15 4cbb b368 84bd
000001e0: f687 903a 82dc af3c 5c50 3b3d 3237 06bd
000001f0: 9e84 d93b c6e0 8a3d ba79 f9bd aee1 cfbc
00000200: 50d0 9d3d e5a5 4ebc dcb7 0fbe 9dfa 513c
00000210: 9480 c63c 7a2a b6bc 20c1 87bc c6c2 c23c
00000220: cb30 853d 1b6f 00bd 0d5e 163c cc36 c83c
00000230: 34be f83c 0efa 17bd 18f5 a13d dc45 d93d
00000240: d2b2 24bd 6e63 0cbd 660c 763d 26a4 d73c
00000250: 3566 05bd aff3 9b3a 16c3 e6ba f499 f53d
00000260: 0f21 933d 783e ad3c 11db 5d3c 36fa 333d
00000270: 6a3b 87bd 6285 5d3d 26b7 b0bc 32e0 bf3c
00000280: e260 c6ba c7ba cfbc 8b97 7dbd 3cc9 023d
00000290: 591f d93c 4a04 543d e2ae eb3b cc27 56bc
000002a0: 9348 dabb b5f9 13bd b1e4 19bd 9a9e af3d
000002b0: 26ae 28bd f84c 973d 1f86 a03d b62b 41bc
000002c0: 8334 2f3b 1c87 e0bc db5f 593c 8843 1b3c
000002d0: 626c 8f3c d404 cb3c 24b0 d03b 98d1 363d
000002e0: 7e22 7c3c 84b9 2f3d ed94 32bb 042b 1c3c
000002f0: 3941 fd3c e553 1b3d 7e71 5e3d ecf6 b53c
00000300: 0938 81bd ae18 c5bc ae1b ef3b 4e67 103d
00000310: 36d0 2fbc 16ce 4a3d 9205 3d3d 0042 113d
00000320: 4e82 c33d be4e 63bd 745b eebc e057 593d
00000330: 340e 1b3d ea03 97bc e688 d7bc de9f 80bc
00000340: 91ea 643c 12ef 953d c63d 9d3d 18e8 45ba
00000350: 9f33 07bd b6f1 c23c 0a98 163d ae53 a0bc
00000360: 8c77 4f3d 9abd 8dbd 6c25 92bd 32e3 dc3c
00000370: 65ec fb3b 2675 1dbd af6c 9ebd 7fbb 853d
00000380: ec75 a7bb 409a 87bc 23b6 fabb 45c1 0a3d
00000390: b0ae 58bd 9d88 f23a ad29 813c 9429 103d
000003a0: 122c 723c e6a6 57bd a8b9 403d e3a0 fd3d
000003b0: a121 a73c ef28 633d 472d b53c 7806 b73d
000003c0: e127 66bb 5cec 453d 1c0e a43d 1b77 b7bd
000003d0: 9dba da3a 7452 753c d80a 96bc 02e2 bebc
000003e0: ea97 2dbd 1a51 d5bc cc3d a53d 1cca cc3c
000003f0: d4b5 c53c 85b6 683c 6ae0 3a3d f221 89bd
-0.025476888 0.0081692785 0.088619776 -0.03811438 -0.061267402 -0.020426728 0.039143316 -0.015436981
-0.072398275 -0.021388553 -0.018621232 0.070457846 -0.018356899 0.02109787 -0.0050186194 -0.0015212991
0.004327857 -0.010996152 -0.01528731 -0.020974413 0.025338616 0.07114485 0.010548027 0.004183226
0.04351511 0.024528064 0.035313442 0.06315845 0.017636016 -0.05687186 0.06334151 0.055695564
0.005594915 -0.04454644 0.06967515 0.08425493 -0.058912724 0.10884604 0.13182637 0.018925965
0.14778528 0.10081196 -8.837235e-05 0.093951315 0.08979912 0.00020217466 0.035959683 -0.072437584
0.09120092 -0.00278599 -0.08429851 0.07585817 0.095878825 -0.008272219 -0.06062439 0.06161157
-0.015282789 -0.08345051 0.056231253 0.026785977 -0.10595568 0.06365443 -0.02485295 0.019209541
0.056866847 0.013593919 0.08501262 0.025345761 -0.017005887 0.04629982 0.051699866 0.004913602
0.18162888 0.028476883 0.0044762767 0.09513803 0.10551599 0.010579871 0.109167755 -0.03704474
-0.099236146 0.0050512124 0.0018394801 0.038559195 0.060461268 0.05315697 -0.006426692 -0.04924818
-0.06020972 0.0350684 -0.102944575 -0.07744072 0.045128122 -0.047595493 -0.00690319 -0.069304466
-0.027723534 0.115948714 -0.010457162 0.04645805 -0.028337605 -0.016378524 0.047868215 -0.010118173
-0.0343052 -0.02050421 -0.044600405 -0.0036414766 0.10054624 0.0060063927 -0.055807613 0.0019326713
-0.04258877 -0.068895936 0.077202074 0.06701103 -0.026328623 -0.007939288 -0.0031140954 -0.06465282
0.0011026848 0.021467451 0.045730934 -0.032767482 0.0066381237 0.067811534 -0.121814206 -0.025376167
0.07705748 -0.0126127945 -0.1403498 0.0128160985 0.024231233 -0.022237051 -0.016571581 0.023774516
0.06503447 -0.03135596 0.009177697 0.024440192 0.030364133 -0.037103705 0.07908076 0.10609028
-0.0402096 -0.03427451 0.060070418 0.02632339 -0.032568175 0.0011898185 -0.0017605748 0.11992255
0.0718404 0.021147951 0.013540999 0.04393979 -0.06603129 0.054082282 -0.021571707 0.023422334
-0.0015135074 -0.025357617 -0.0619121 0.031930193 0.026504206 0.051761903 0.0071924785 -0.013071012
-0.0066614836 -0.03612681 -0.037571613 0.08575173 -0.041181706 0.073877275 0.078380816 -0.011790207
0.002673418 -0.027408175 0.013267483 0.00947655 0.017507736 0.024782576 0.006368654 0.044633478
0.015389083 0.04290153 -0.0027249411 0.00953174 0.03091489 0.037921805 0.054307453 0.022212468
-0.06309516 -0.02405962 0.007297001 0.03525477 -0.010730794 0.049512945 0.04614789 0.035463333
0.09546338 -0.055495016 -0.029096343 0.05306232 0.037855342 -0.018434484 -0.026310395 -0.01570123
0.013971941 0.0732099 0.07677798 -0.0007549538 -0.033008214 0.023796897 0.03676609 -0.019571152
0.05065112 -0.06920929 -0.07136044 0.026963804 0.0076880925 -0.0384418 -0.077355735 0.06529903
-0.005110493 -0.016553044 -0.007651107 0.033875722 -0.05290097 0.0018503849 0.015766943 0.035195902
0.014781015 -0.0526494 0.047052056 0.12384202 0.020401778 0.05545896 0.022116316 0.08936781
-0.0035118985 0.048321113 0.08010504 -0.089582644 0.0016687695 0.014973272 -0.018315718 -0.023301128
-0.042381205 -0.026039649 0.080684274 0.024998717 0.024134554 0.014203672 0.045624174 -0.06695928

bias f4 [64]
00000000: e636 da3c 06ff c53a 86a1 20bd bd31 2c3d
00000010: 088c 94bc e858 003e 883e 8f3d 289c 7b3c
00000020: 026d 4e3c 012d 4fbd 82fb 5c3d cb8f 8dbd
00000030: 76ed 93bc 5cc2 393d ce49 29bd 58f3 b03d
00000040: 8364 12bd f42f fb3d e265 31bc ee95 223c
00000050: 848f 353e ca05 ea3b e517 803d 43c9 793d
00000060: 0309 4dbc 94e4 bb3d 7a1d 2d3b 320f 883d
00000070: 322d f73d 7883 c03c eeee ae3d 2b12 2d3d
00000080: 4ec5 d53c 64f2 913c 96d7 af3d 57c8 ee3d
00000090: c2b0 3a3e 903c 0b3e e8c2 df3c 00fa 72bb
000000a0: 6a9e c4bc 8a39 4a3c c2d1 1c3d 4fda b43d
000000b0: e28c 8e3d fc93 dc3d ee4e 553c 1f7f 003d
000000c0: 6174 11bd c9eb 943c 32b5 f33d 0517 253d
000000d0: e116 193d 8657 aa3d 96aa febc 4a98 5a3d
000000e0: aa56 0cbc facc de3d ec1d 3aba a4f8 94bc
000000f0: f082 79bc 5188 003d bee9 da3c 62ad 813d
0.026637506 0.001510591 -0.03921654 0.04203962 -0.018133178 0.12533915 0.06994349 0.015357055
0.012599232 -0.05058003 0.053950794 -0.06912192 -0.018057566 0.04535137 -0.04133015 0.08640164
-0.035740387 0.12265006 -0.010827513 0.009923441 0.17730528 0.0071418034 0.062545575 0.060982954
-0.012514356 0.09174457 0.0026415274 0.06643523 0.12069167 0.02350019 0.08541666 0.042253654
0.026095059 0.017815776 0.08586042 0.116593055 0.1823149 0.13597322 0.027314618 -0.003707528
-0.024001319 0.01234282 0.03828598 0.088307016 0.06960465 0.10770413 0.013019307 0.031371232
-0.03551138 0.018178837 0.11899795 0.040305156 0.037375335 0.08317475 -0.031087201 0.05336789
-0.008565584 0.1087894 -0.00070997956 -0.018184967 -0.015228972 0.03138 0.026722785 0.06331898
