system/models/body_iid_and_unbalanced/MOON_server.pt (torch, 4151 bytes, 4 tensors)

weight f4 [20, 11]
00000000: 06ff 213e 7573 1b3f 3eed a1be 0e44 dabe
00000010: 3a26 04bf 2c87 2c3c 42f6 03bf 0645 ed3e
00000020: ce9c fe3c 070e 7d3e 091a 553e 8a0e b83e
00000030: 86c8 863b 86e9 c6be 9b26 f1be cefa 5fbe
00000040: 423f e73d be2e ec3e 46e9 aebd 0ff7 5a3d
00000050: ee46 d43e fceb a03e fa9a bdbc 7644 133f
00000060: 2018 e13d f731 0c3d 53e3 ec3e a2dc 82be
00000070: b486 62be 732b 0c3e aa64 dc3d c941 9b3e
00000080: d63f 2b3d c471 5abe 7240 7dbe 9471 86be
00000090: c454 43be af8e 84bc a2a8 553d d605 6a3d
000000a0: ae04 a2bc 6fe0 51be 9079 4ebe de40 ccbe
000000b0: 92f2 8bbd b7a2 23be c231 b03e d4f1 0e3e
000000c0: 12db cdbe 93b7 4d3d f301 f73d 09d5 a53e
000000d0: f8eb 813e 7121 6e3d ba16 a03e c09a 64be
000000e0: 4ed9 cfbd c064 cdbe 2e17 7cbe 6ffb 1bbe
000000f0: 735d 673e 1aea 163e dbce 7fbd eb0e 663d
00000100: 7d53 573e bc52 a2be 8e7e 723f 08b8 7d3e
00000110: 87d7 9f3e 3983 c43e 4a03 2dbf 2d44 ffbe
00000120: 4f38 ab3e 5afe 973e 3ab4 b53e f67d bb3e
00000130: dc4e dd3b dcef 99be 885b 6fbe 2895 a6be
00000140: 6590 9cbe 041f 033e 0ac8 433e 9ea1 dfbe
00000150: 9169 973d 0dfb b1bd ac5b b2be 7e9d 43be
00000160: d83f 3e3e e424 16be 1396 03bd d449 0a3f
00000170: c9aa 1a3f bcbc 533e c459 aabe f40f 003e
00000180: a6cd 5d3d 44b8 6ebc 74b6 1fbe ef3b e2bd
00000190: b8cb a53e 6f67 843e ea11 53be fef1 25be
000001a0: 9442 cdbe e29d b13d 00eb 6fbe 505a a8be
000001b0: 3527 a73c 0fa2 993c 7036 dcbc 0010 e83e
000001c0: 3831 13be 98d4 383e 90de b43e 0a61 62be
000001d0: e47d 57be eea4 123e 449c 313e 586f 313e
000001e0: b2a0 673e 6633 0bbe 845b 65be 4daa 3a3e
000001f0: 9cfa 0abe fa3a bf3b a8d4 03be 8e14 82bc
00000200: ca86 39be f89f 08bf 2981 c2bd ced0 b6bd
00000210: 57bb 873e 8237 243f 266c 2d3e 52ee 69be
00000220: 265a 373e a4f9 12bd ac94 e1bd b00f fc3e
00000230: 3a32 a23e 82b7 203f e474 ef3e b870 99be
00000240: e2ec 17bf 44a7 d9bd dc08 f63e 31be 91bd
00000250: 8dcb 0ebe 2a17 01be 9e28 33bf 02a0 0ebf
00000260: 3e3f 5bbe 2a90 573d e594 15bf 407f 05bf
00000270: 3a56 c0bc a540 ba3d 660d 20bd 2c39 01be
00000280: 3f2e 9cbd 1cbc b8be 71ac 52bf 8653 94bf
00000290: 76d0 79bd a6b2 febd 3298 51be c71e 2f3e
000002a0: 79e8 8cbe f477 2fbd 069e d83e ff4b 03be
000002b0: 22cb 803e fab4 113f 70ed 49bf 667e 3e3e
000002c0: 26e5 4e3e 5916 45be 3c04 923e e29e e1be
000002d0: 6bde 9fbd 81ab 3e3e 84a8 aebd 42b8 093f
000002e0: 6a48 32bd 378d ea3d e800 833d b4d7 b0be
000002f0: e6b2 97be 72e9 353e ef0d f73e d470 b13e
00000300: 861e 90bd 22d0 943b ca8b 12bf 9cdc 12bf
00000310: 13ae 75be 5273 1cbe cb1e 89be a8dc d1bd
00000320: beaf 4cbb 61ab a53c 9c9a 12be 2a2c 79be
00000330: bacf 72be 653c 763e 4067 56be 903b 9a3e
00000340: 6a51 bc3d 0523 eb3c b4cf 3e3c b2f8 983c
00000350: 7330 063e 8bd0 2ebe acea d4bd 5f4f 55bd
00000360: 0c4f a8be a088 31bf c622 a13e f3ae 0abf
0.1581994 0.6072305 -0.31626314 -0.42630047 -0.5162083 0.010530274 -0.51547635 0.46341723
0.03108063 0.24712382 0.20810713 0.35948592 0.0041132597 -0.3885004 -0.47099766 -0.21873018
0.11291362 0.4612941 -0.08540587 0.05345827 0.41460365 0.31430042 -0.023145188 0.5752634
0.109909296 0.034227338 0.46267185 -0.25558954 -0.22121698 0.1368845 0.10761388 0.30323628
0.041808926 -0.2133246 -0.24731615 -0.26258528 -0.19075304 -0.016181318 0.052162774 0.05713447
-0.019777622 -0.20495771 -0.2016356 -0.3989324 -0.06833376 -0.1598004 0.34412962 0.13959438
-0.402062 0.0502239 0.12060919 0.32389095 0.25375342 0.05813736 0.3126734 -0.22324657
-0.101488695 -0.4011593 -0.24618217 -0.15232633 0.22594242 0.1473774 -0.062453132 0.05616657
0.21027942 -0.31703746 0.9472436 0.24777234 0.31219122 0.38381365 -0.67583144 -0.49856701
0.33441398 0.29686242 0.35489064 0.36619538 0.0067537855 -0.3006581 -0.2337476 -0.32535672
-0.30578914 0.128048 0.19119278 -0.43677992 0.07393182 -0.08690462 -0.34835565 -0.19103047
0.18579042 -0.1466251 -0.032125544 0.540189 0.6041685 0.20677465 -0.3327161 0.12506086
0.0541512 -0.0145703 -0.15596944 -0.11046588 0.32381988 0.25860164 -0.20612302 -0.16205594
-0.40089858 0.08672692 -0.23429489 -0.32881403 0.020404438 0.018754033 -0.026881427 0.45324707
-0.14374244 0.18049848 0.35326052 -0.2210733 -0.21044117 0.14320728 0.17344767 0.1732763
0.22619894 -0.13593826 -0.22398192 0.18229027 -0.13572162 0.005835888 -0.1287409 -0.015878942
-0.18117824 -0.5336909 -0.094972916 -0.08926545 0.26510116 0.641472 0.16935787 -0.22844818
0.17905483 -0.035882607 -0.11014685 0.4923072 0.31678945 0.6278001 0.46768868 -0.2996881
-0.5934583 -0.106276065 0.48053634 -0.07116354 -0.13944836 -0.12606493 -0.6998385 -0.557129
-0.21410844 0.05262772 -0.5843032 -0.52147293 -0.023478616 0.09094361 -0.039075278 -0.12619466
-0.07626008 -0.36081016 -0.82294375 -1.1587989 -0.06098982 -0.12436418 -0.20468214 0.17101584
-0.27521113 -0.042839006 0.42308062 -0.12821959 0.25154978 0.56916773 -0.78877926 0.18602905
0.202046 -0.19246806 0.28518856 -0.4406653 -0.07806095 0.18620111 -0.085282356 0.5379678
-0.04352609 0.11452716 0.06396657 -0.34539568 -0.29628676 0.17764834 0.48252818 0.34656394
-0.07037072 0.004541413 -0.5724455 -0.57367873 -0.23992185 -0.15278366 -0.26781306 -0.10247165
-0.003123268 0.020223321 -0.14316791 -0.24333254 -0.23712054 0.24046476 -0.20937824 0.30123568
0.09195216 0.028703222 0.0116462 0.018673275 0.1310442 -0.1707174 -0.103963226 -0.052077647
-0.32872808 -0.693491 0.31471843 -0.541732

bias f4 [20]
00000000: 12fd a43d 8a47 093f b02a 803d 4677 7abd
00000010: d8d2 82be 3a03 553c 5f82 73be 12ee f8bd
00000020: a44b 1fbe 0a72 32be 5a66 c0bc 7322 c73e
00000030: 0465 b13e bad8 323f 1238 1d3f 393b b0bd
00000040: 8691 3b3e 7c92 0fbe 8ad8 a8bd 3d57 893e
0.08056082 0.53624785 0.06258142 -0.061148904 -0.25551486 0.013001258 -0.23780201 -0.12154783
-0.15556198 -0.17426315 -0.023486305 0.3889347 0.3464738 0.6986195 0.6141368 -0.08605046
0.18317232 -0.14020723 -0.082444265 0.2682437

weight f4 [4, 20]
00000000: 6189 6b3f 1829 3c3f c06f b93e cae5 f7bd
00000010: 9661 3f3e ccab f23d 6927 9f3f 3705 6abd
00000020: 8865 1d3d 1a3e 6abe f8e7 493e 02f9 d1be
00000030: f179 853f 0c12 4abf 3b1d a2bf 474d 39bf
00000040: 38a6 d1be 8241 053e 899c 1bbe befa 58bf
00000050: c7ef 47bd 3366 a33e ec40 223e 3179 49bd
00000060: 6c4e a23d e71a f9be f5da b13a 6a6b f8be
00000070: be8c 0d3f 86fc ab3e b016 cc3d 828b cfbc
00000080: 04ec 35be 2d0c 01bf be87 5cbe 58a4 c1be
00000090: 7067 053f 3fbb 3fbf 6220 853e d6b2 143e
000000a0: fb80 c0be 089a 1abf 95ba a5be fdbb 7f3e
000000b0: 0634 db3e 7e40 b63e d1da 16bf 5a75 303e
000000c0: b9c9 0ebf 8b28 f13d 8c4f d2be 069c 953e
000000d0: f6ba 88be 3dee b03e 17dc 803d 1449 913e
000000e0: f506 913e acf2 5bbe 4415 c6bd 1620 a13e
000000f0: f8a8 26bf 7c45 87be a612 e5be d5fa a43e
00000100: b3e0 d5be d5ca 84be b911 18bf 7214 d33e
00000110: bc41 433e 24fd 75be 5eb6 dbbe dee0 de3d
00000120: 9cd4 f3be 4838 583f 1200 993f a41b 0c3f
00000130: 2ae0 c3be ee04 203f d676 233d 13b8 7a3e
0.920065 0.73500204 0.3621807 -0.12104376 0.1868957 0.11849174 1.2433902 -0.05713388
0.038426906 -0.22875252 0.19717395 -0.4101029 1.0427839 -0.7893379 -1.266517 -0.7238354
-0.40947127 0.1301327 -0.15196432 -0.847576 -0.048812654 0.3191391 0.15845078 -0.049187843
0.07925114 -0.48653337 0.0013569283 -0.4851945 0.5529288 0.33591098 0.09965265 -0.025335077
-0.17765814 -0.50409204 -0.21536157 -0.37820697 0.5211096 -0.7489509 0.2600127 0.14521345
-0.37598404 -0.60391283 -0.32368913 0.24974056 0.42813128 0.3559608 -0.5892764 0.17232266
-0.55776554 0.11775311 -0.41076314 0.292206 -0.2670514 0.3455676 0.06291979 0.28376067
0.2832562 -0.2147929 -0.09672025 0.31469792 -0.65101576 -0.264202 -0.4474079 0.3222262
-0.41772994 -0.25936 -0.5940204 0.41226536 0.19068044 -0.24022347 -0.42912573 0.10882734
-0.47623146 0.8446088 1.1953146 0.54729676 -0.3825696 0.6250752 0.039908253 0.24484281

bias f4 [4]
00000000: 7fb8 53bd 1ef0 e53d 2d84 02be bb44 37bd
-0.05168962 0.11227439 -0.12745734 -0.04474328
