system/models/body_iid_and_balanced/FedAvg_server.pt (torch, 4163 bytes, 4 tensors)

weight f4 [20, 11]
0.31980118 0.34150964 0.11207272 -0.22993366 -0.1984821 -0.1595437 0.46498227 0.1762417
0.12004514 0.26697204 0.11131077 0.1350865 0.14084262 -0.25549477 -0.5270089 -0.30023834
-0.08015176 0.5474429 -0.27194902 0.08067781 0.17092878 0.2467021 -0.13021845 0.4191517
0.08629547 -0.002175131 0.4741829 -0.31253386 -0.056931786 0.20341149 -0.05405996 0.17961836
-0.097264975 -0.30789542 -0.17634994 -0.47472847 -0.2937563 0.122117594 -0.12240493 0.1006396
0.16247517 -1.1445112 0.15245867 -0.28738198 -0.33523756 -0.16811681 0.23568015 0.21323884
-0.19293898 0.12517986 0.22812232 0.2664457 0.13172346 0.09171668 0.17954296 -0.24378857
0.3632589 0.14261359 -0.502254 0.10807437 0.16099049 0.21513411 -0.18683149 0.060895342
0.22045854 -0.5435317 0.3977816 -0.06238737 -0.13362314 -0.035068743 -0.6753054 -0.6563293
0.10629889 0.26098567 0.11254771 0.08922556 0.14138001 -0.31904596 -0.15381525 -0.23670281
-0.20802349 0.22333708 0.11589247 -0.5729021 0.08687974 -0.30474263 -0.1056869 -0.22777861
0.3343935 -0.40513328 -0.2275314 0.5358882 0.7470734 0.1602042 -0.32115638 -0.0957242
0.2661661 0.2702265 0.010270837 0.009200865 0.28821832 0.25964564 -0.046660144 -0.21395805
-0.35116807 0.23057392 -0.31841993 -0.18111779 -0.062944934 -0.014297965 -0.23644048 0.3661744
-0.2397592 0.14893284 0.31692812 -0.27714214 -0.026346635 0.14562607 0.043225486 -0.0077399127
0.19476995 0.13060555 -0.113947615 0.08578636 -0.1355127 -0.013192715 -0.07450651 0.08395742
-0.2937435 -0.77806973 -0.12586465 0.0030920724 0.24612865 0.46452796 0.17599475 -0.09208083
0.16689673 0.047165878 -0.07281217 0.24564126 0.50515413 0.4152202 0.47782665 -0.50642323
-0.7420685 -0.15484032 0.8533505 0.09444699 -0.22555345 0.23805487 -1.0766873 0.22421685
-0.61864555 0.26907688 -0.5850493 -0.09847817 -0.08350211 -0.18444414 -0.26983207 -0.1854817
0.2453934 0.03261754 -1.7421563 -1.5167502 0.04977889 -0.51645076 -0.5095248 0.105871856
-0.2775903 -0.0579793 0.17316476 0.057784572 0.35365143 0.8042364 -1.3804009 0.1384026
0.430054 -0.48064196 0.21660164 -0.58377737 -0.15050933 0.11624192 -0.10334541 0.50268674
-0.21243691 0.02856474 0.15581354 -0.46025568 -0.080971435 -0.023926951 0.83305025 0.44464636
-0.2980781 0.5651851 -0.6611053 -0.5291972 -0.5532625 0.15395269 -0.42345643 -0.037643258
-0.009225776 0.3036139 -0.004634943 -0.34559387 -0.044334136 0.20039092 -0.18297535 0.28537503
0.07334251 0.21102598 0.3807224 -0.09795417 0.26624703 -0.05014416 -0.21323262 -0.022762608
-0.45862246 -1.0326967 1.0419416 -0.11989136
00000000: fbbc a33e 5ada ae3e 6286 e53d bb73 6bbe
00000010: e43e 4bbe 6c5f 23be 2812 ee3e b478 343e
00000020: 3ada f53d 8fb0 883e e7f6 e33d 1e54 0a3e
00000030: 0c39 103e 36d0 82be 0eea 06bf d7b8 99be
00000040: 9b26 a4bd 3825 0c3f e73c 8bbe 683a a53d
00000050: f407 2f3e 7a9f 7c3e fc57 05be 0d9b d63e
00000060: aebb b03d a58c 0ebb 1ac8 f23e 7004 a0be
00000070: 4e31 69bd 1a4b 503e fa6d 5dbd e0ed 373e
00000080: dc32 c7bd 78a4 9dbe 1495 34be 9c0f f3be
00000090: 3a67 96be ca18 fa3d 70af fabd 221c ce3d
000000a0: e45f 263e 587f 92bf 201e 1c3e bb23 93be
000000b0: 42a4 abbe d026 2cbe 2356 713e 485b 5a3e
000000c0: cc91 45be 262f 003e e698 693e 926b 883e
000000d0: 84e2 063e f4d5 bb3d 1cda 373e b6a3 79be
000000e0: 12fd b93e 4c09 123e b893 00bf 1856 dd3d
000000f0: b1da 243e 1e4c 5c3e c150 3fbe 656d 793d
00000100: e2bf 613e e524 0bbf 08aa cb3e e689 7fbd
00000110: 81d4 08be 3ea4 0fbd d1e0 2cbf 3205 28bf
00000120: 3cb3 d93d ea9f 853e 6a7f e63d e4bb b63d
00000130: ecc5 103e fe59 a3be bf81 1dbe 3962 72be
00000140: 1c04 55be 7ab2 643e 0859 ed3d b6a9 12bf
00000150: 01ee b13d 3a07 9cbe 6072 d8bd cc3e 69be
00000160: a035 ab3e a16d cfbe fefd 68be f82f 093f
00000170: 3440 3f3f 920c 243e 9c6e a4be 0d0b c4bd
00000180: ec46 883e 215b 8a3e 0347 283c 3abf 163c
00000190: 5a91 933e 46f0 843e b51e 3fbd d217 5bbe
000001a0: 4dcc b3be 921b 6c3e f007 a3be f176 39be
000001b0: 46e9 80bd 0342 6abc 741d 72be 367b bb3e
000001c0: 7083 75be da81 183e 6744 a23e 93e5 8dbe
000001d0: e6d4 d7bc 001f 153e 350d 313d 189f fdbb
000001e0: c671 473e 76bd 053e 5e5d e9bd c2b0 af3d
000001f0: d7c3 0abe 4226 58bc de96 98bd def1 ab3d
00000200: 8c65 96be 942f 47bf aae2 00be 5ea4 4a3b
00000210: 2609 7c3e 9cd6 ed3e f837 343e e094 bcbd
00000220: fae6 2a3e 0231 413d 8c1e 95bd 6289 7b3e
00000230: c851 013f be97 d43e b2a5 f43e f4a4 01bf
00000240: 34f8 3dbf 768e 1ebe 2e75 5a3f 6c6d c13d
00000250: 7cf7 66be a8c4 733e e4d0 89bf 1a99 653e
00000260: 8e5f 1ebf 72c4 893e cac5 15bf ecae c9bd
00000270: 2703 abbd edde 3cbe 6e27 8abe eaee 3dbe
00000280: 6848 7b3e f899 053d fafe debf df24 c2bf
00000290: f3e4 4b3d 1e36 04bf 3870 02bf 58d3 d83d
000002a0: 5120 8ebe b47b 6dbd 1a52 313e 84af 6c3d
000002b0: cd11 b53e 70e2 4d3f fab0 b0bf 69b9 0d3e
000002c0: 0a30 dc3e b416 f6be d2cc 5d3e 6f72 15bf
000002d0: 1e1f 1abe 3e10 ee3d c2a6 d3bd 14b0 003f
000002e0: 1089 59be 9a00 ea3c 968d 1f3e a2a6 ebbe
000002f0: 5ad4 a5bd 7402 c4bc c842 553f b0a8 e33e
00000300: b19d 98be f9af 103f 323e 29bf 7879 07bf
00000310: 9ca2 0dbf c6a5 1d3e 48cf d8be d12f 1abd
00000320: b627 17bc 4873 9b3e b8e0 97bb aef1 b0be
00000330: b697 35bd 4733 4d3e e45d 3bbe ad1c 923e
00000340: 9934 963d 3217 583e 0cee c23e 329c c8bd
00000350: 8851 883e f663 4dbd a759 5abe a678 babc
00000360: 90d0 eabe 682f 84bf 585e 853f 9a89 f5bd

bias f4 [20]
0.54377043 0.2249818 0.19310793 -0.22874847 -0.2979986 0.0904633 0.016258746 -0.04318036
-0.29506984 0.024393508 0.11988157 0.39232787 0.1937493 0.4659773 0.618314 -0.3422017
0.5313132 -0.20852935 -0.10011477 0.13783437
00000000: 8a34 0b3f a161 663e 16be 453e 0a3d 6abe
00000010: 4693 98be d344 b93d 1031 853c e4dd 30bd
00000020: 6513 97be e5d4 c73c 7884 f53d 33df c83e
00000030: 3766 463e 9494 ee3e d449 1e3f 1035 afbe
00000040: 2404 083f b888 55be f908 cdbd 7424 0d3e

weight f4 [4, 20]
1.0011829 0.60834444 0.27183217 -0.14778766 0.056765597 0.37680125 0.9475888 0.103453755
0.19243976 0.0433484 0.33514673 -0.23328546 0.9802863 -1.2230765 -1.5999427 -0.8639177
0.16358462 0.021454336 -0.13983095 -0.8225558 -0.0646787 0.47648278 0.40445903 -0.3940615
0.23144087 0.11575185 0.15985814 -0.3982576 0.30583692 0.32763153 0.16412307 0.100740865
-0.5974641 -0.020799348 -0.48768246 -0.6186794 0.8511431 -0.563552 0.27158397 -0.55204666
-0.3889429 -0.6026673 -0.14592656 -0.04906992 0.44405863 0.34588176 -0.6514326 0.1679127
-0.81823117 0.0017345937 -0.31569204 0.57972956 -0.2836243 0.60598457 0.56508934 0.077723145
0.16252585 -0.59870213 0.27284515 0.33842224 -0.7033007 -0.29612723 -0.78083396 0.99265283
-0.4557159 -1.1098759 -0.39456683 0.16915205 0.5442289 -0.38802576 -0.7266414 -0.4815926
0.02265327 0.53463185 1.298887 1.1338886 -1.1649303 0.9322598 -0.35335964 0.8933618
00000000: c326 803f 76bc 1b3f 962d 8b3e a655 17be
00000010: 0b83 683d 18ec c03e 2e95 723f 90df d33d
00000020: ee0e 453e 188e 313d 5a98 ab3e 62e2 6ebe
00000030: 0bf4 7a3f c58d 9cbf ecca ccbf b629 5dbf
00000040: ba82 273e 01c1 af3c d82f 0fbe 0493 52bf
00000050: 4476 84bd 8df5 f33e 4115 cf3e 6ec2 c9be
00000060: d6fe 6c3e 4e0f ed3d dab1 233e 6ce8 cbbe
00000070: a896 9c3e 52bf a73e e10f 283e 3a51 ce3d
00000080: 68f3 18bf 6563 aabc 84b1 f9be c661 1ebf
00000090: 84e4 593f f244 10bf 0e0d 8b3e ee52 0dbf
000000a0: 8623 c7be 6748 1abf c66d 15be 8afd 48bd
000000b0: a75b e33e 6a17 b13e 49c4 26bf 4ff1 2b3e
000000c0: 9977 51bf 4e5b e33a 63a2 a1be 2869 143f
000000d0: 3437 91be ce21 1b3f b2a9 103f 502d 9f3d
000000e0: 2d6d 263e 8b44 19bf 5cb2 8b3e ae45 ad3e
000000f0: 840b 34bf fd9d 97be bce4 47bf 7f1e 7e3f
00000100: 9853 e9be 6a10 8ebf aa04 cabe 3236 2d3e
00000110: 9652 0b3f 50ab c6be 2c05 3abf 4e93 f6be
00000120: 5a93 b93c a2dd 083f ee41 a63f 4323 913f
00000130: 701c 95bf 94a8 6e3f 8eeb b4be 5cb3 643f

bias f4 [4]
0.018441759 0.11436212 -0.014782917 -0.2296375
00000000: 2c13 973c b036 ea3d 0c34 72bc 1826 6bbe
